results_linux/1e_dscnn_se_res_att_wide_mels64_drop05_rand42_warm70_mixup0.2_split70:15:15_linux/model_int8.tflite (tflite, 541640 bytes, 33 tensors)

MynaNet_DSCNN_SE_Res_Att_Wide/output/MatMul i1 [10, 192] scale=0.002330958 zero_point=0
00000000: 0024 24af f82a babd c533 4106 06c8 4eb4
00000010: ded5 43ef 8e93 2013 2fbe eafe b121 bdc4
00000020: 07cf e0cd a5d1 3f21 113c 03d4 5938 df44
00000030: 2840 aedf f348 be48 b63c f5c8 e2ab 4026
00000040: d704 2ad8 ae42 34cf 144a df96 b90a 1238
00000050: d4fd 1917 2510 cd33 b7ed fa05 2d3a b5fa
00000060: 2016 0c98 e313 93df 12c4 012d 2da9 3e28
00000070: 3d17 fa2c bba1 f1ee 0a1c ebb3 eee7 c912
00000080: 41e8 9fe2 0424 ff10 9539 3edc 9d27 16b7
00000090: f81b dbc7 2900 f60c 323b 5391 46f5 3d19
000000a0: 2933 2505 4536 25c7 3ff2 c7c3 d5e7 343c
000000b0: 2e38 3a21 bed1 dd43 daca d3a9 2808 2def
000000c0: c5f5 2a2b fd25 39bf ea3f f9fb c0dc 022c
000000d0: d5b4 31d6 f94b 1a49 d24d c9d5 eeb1 f3b5
000000e0: b23a 3510 d73c fb05 c133 3e07 04fb fea9
000000f0: 260b 320c 450a fed2 1730 f74b ea06 0607
0.0 0.08391449 0.08391449 -0.18880759 -0.018647663 0.097900234 -0.16316706 -0.15617418
-0.13752651 0.11887886 0.15151227 0.0139857475 0.0139857475 -0.13053364 0.18181472 -0.1771528
-0.07925257 -0.10023119 0.15617418 -0.039626285 -0.2657292 -0.25407442 0.07459065 0.0442882
0.10955502 -0.15384322 -0.051281072 -0.004661916 -0.18414567 0.07692161 -0.15617418 -0.13985747
0.016316704 -0.11421694 -0.07459065 -0.11887886 -0.21211717 -0.10955502 0.14685035 0.07692161
0.039626285 0.13985747 0.0069928737 -0.102562144 0.20745525 0.13053364 -0.07692161 0.15850514
0.09323832 0.1491813 -0.19113855 -0.07692161 -0.030302454 0.16782898 -0.15384322 0.16782898
-0.17249088 0.13985747 -0.025640536 -0.13053364 -0.069928735 -0.19813143 0.1491813 0.0885764
-0.095569275 0.009323832 0.097900234 -0.09323832 -0.19113855 0.15384322 0.121209815 -0.11421694
0.04661916 0.17249088 -0.07692161 -0.24708153 -0.16549802 0.02330958 0.041957244 0.13053364
-0.102562144 -0.0069928737 0.05827395 0.05361203 0.08624544 0.037295327 -0.11887886 0.11887886
-0.17015992 -0.0442882 -0.0139857475 0.01165479 0.1048931 0.13519555 -0.17482184 -0.0139857475
0.07459065 0.051281072 0.027971495 -0.24241963 -0.06759778 0.0442882 -0.25407442 -0.07692161
0.041957244 -0.13985747 0.002330958 0.1048931 0.1048931 -0.20279334 0.14451939 0.09323832
0.14218843 0.05361203 -0.0139857475 0.102562144 -0.1608361 -0.221441 -0.034964368 -0.041957244
0.02330958 0.06526682 -0.048950117 -0.17948376 -0.041957244 -0.05827395 -0.12820269 0.041957244
0.15151227 -0.05594299 -0.22610292 -0.069928735 0.009323832 0.08391449 -0.002330958 0.037295327
-0.24941249 0.1328646 0.14451939 -0.08391449 -0.23076484 0.09090736 0.051281072 -0.17015992
-0.018647663 0.06293587 -0.08624544 -0.1328646 0.095569275 0.0 -0.02330958 0.027971495
0.1165479 0.13752651 0.19346951 -0.25873634 0.16316706 -0.025640536 0.14218843 0.05827395
0.095569275 0.11887886 0.08624544 0.01165479 0.1608361 0.12587173 0.08624544 -0.1328646
0.14685035 -0.03263341 -0.1328646 -0.14218843 -0.10023119 -0.05827395 0.121209815 0.13985747
0.10722406 0.13053364 0.13519555 0.07692161 -0.15384322 -0.10955502 -0.08158353 0.15617418
-0.0885764 -0.12587173 -0.1048931 -0.20279334 0.09323832 0.018647663 0.1048931 -0.039626285
-0.13752651 -0.025640536 0.097900234 0.10023119 -0.0069928737 0.08624544 0.1328646 -0.15151227
-0.051281072 0.14685035 -0.016316704 -0.01165479 -0.1491813 -0.08391449 0.004661916 0.102562144
-0.10023119 -0.1771528 0.11421694 -0.097900234 -0.016316704 0.17482184 0.060604908 0.17015992
-0.10722406 0.17948376 -0.12820269 -0.10023119 -0.041957244 -0.18414567 -0.030302454 -0.17482184
-0.18181472 0.13519555 0.12354077 0.037295327 -0.095569275 0.13985747 -0.01165479 0.01165479
-0.14685035 0.11887886 0.14451939 0.016316704 0.009323832 -0.01165479 -0.004661916 -0.20279334
0.0885764 0.025640536 0.1165479 0.027971495 0.1608361 0.02330958 -0.004661916 -0.10722406
0.05361203 0.11188598 -0.020978622 0.17482184 -0.051281072 0.0139857475 0.0139857475 0.016316704

MynaNet_DSCNN_SE_Res_Att_Wide/fc1_bn/batchnorm/mul_1 i1 [192, 96] scale=0.0029462068 zero_point=0
00000000: ecf1 32e1 d1fc 0cfe 10f8 2ad0 2ae5 11ca
00000010: 3112 fb11 1807 10b7 ec21 d507 1fe1 4c00
00000020: 092b f310 ecf4 320a 0b2d 4114 d3ef f515
00000030: 28ec d1e7 21de 1dfd 08ef 0b21 ea2e 0e0a
00000040: e50e 04d2 e6fe e9f9 c20e 2a37 e60f 33e3
00000050: 253b 182a d9ee e0cf 2306 e316 f109 0030
00000060: f0df 22e4 2401 1303 d415 ae33 2dd9 d00e
00000070: f8eb 1b10 15b0 e521 db37 0514 eb18 eefa
00000080: 331a 07ce 0014 d600 b2b7 ed07 47f8 b71c
00000090: 442b cb32 fad6 3204 2e17 f90b c0d3 38c0
000000a0: d91e 0f09 311d a738 0e32 dff7 00eb fec2
000000b0: 2724 0f47 472d e6e2 e050 0c40 d423 bf1e
000000c0: bae1 16f1 17d6 b20d 433a 2cf2 25e3 0826
000000d0: 18e4 2c06 cafd 3a3c 18d4 192c c42c c7c3
000000e0: 422c 14f5 e4f0 0909 3522 0b14 2504 ea30
000000f0: 4b1a dce5 32c6 25cd e4f0 0b3d c7fc 0c02
-0.05892414 -0.044193104 0.14731035 -0.09133241 -0.13847172 -0.011784827 0.03535448 -0.0058924137
0.04713931 -0.023569655 0.12374069 -0.14141792 0.12374069 -0.079547584 0.050085515 -0.15909517
0.14436413 0.053031724 -0.014731035 0.050085515 0.07070896 0.020623447 0.04713931 -0.2150731
-0.05892414 0.097224824 -0.1266869 0.020623447 0.09133241 -0.09133241 0.22391172 0.0
0.026515862 0.1266869 -0.03830069 0.04713931 -0.05892414 -0.03535448 0.14731035 0.02946207
0.032408275 0.13257931 0.19150345 0.05892414 -0.13257931 -0.050085515 -0.032408275 0.061870344
0.11784828 -0.05892414 -0.13847172 -0.07365517 0.097224824 -0.10017103 0.085439995 -0.00883862
0.023569655 -0.050085515 0.032408275 0.097224824 -0.06481655 0.13552551 0.041246895 0.02946207
-0.079547584 0.041246895 0.011784827 -0.13552551 -0.07660138 -0.0058924137 -0.067762755 -0.020623447
-0.18266483 0.041246895 0.12374069 0.16204138 -0.07660138 0.044193104 0.15025654 -0.085439995
0.10900965 0.1738262 0.07070896 0.12374069 -0.114902064 -0.053031724 -0.09427862 -0.14436413
0.10311724 0.01767724 -0.085439995 0.06481655 -0.044193104 0.026515862 0.0 0.14141792
-0.04713931 -0.097224824 0.10017103 -0.08249379 0.10606345 0.0029462068 0.05597793 0.00883862
-0.1296331 0.061870344 -0.24158897 0.15025654 0.13257931 -0.114902064 -0.14141792 0.041246895
-0.023569655 -0.061870344 0.079547584 0.04713931 0.061870344 -0.23569655 -0.079547584 0.097224824
-0.10900965 0.16204138 0.014731035 0.05892414 -0.061870344 0.07070896 -0.053031724 -0.01767724
0.15025654 0.07660138 0.020623447 -0.14731035 0.0 0.05892414 -0.12374069 0.0
-0.22980413 -0.2150731 -0.05597793 0.020623447 0.20918068 -0.023569655 -0.2150731 0.08249379
0.20034206 0.1266869 -0.15614896 0.14731035 -0.01767724 -0.12374069 0.14731035 0.011784827
0.13552551 0.067762755 -0.020623447 0.032408275 -0.18855724 -0.13257931 0.16498758 -0.18855724
-0.114902064 0.08838621 0.044193104 0.026515862 0.14436413 0.085439995 -0.2622124 0.16498758
0.041246895 0.14731035 -0.097224824 -0.026515862 0.0 -0.061870344 -0.0058924137 -0.18266483
0.114902064 0.10606345 0.044193104 0.20918068 0.20918068 0.13257931 -0.07660138 -0.08838621
-0.09427862 0.23569655 0.03535448 0.18855724 -0.1296331 0.10311724 -0.19150345 0.08838621
-0.20623448 -0.09133241 0.06481655 -0.044193104 0.067762755 -0.12374069 -0.22980413 0.03830069
0.19739586 0.17087999 0.1296331 -0.041246895 0.10900965 -0.085439995 0.023569655 0.11195586
0.07070896 -0.08249379 0.1296331 0.01767724 -0.15909517 -0.00883862 0.17087999 0.17677242
0.07070896 -0.1296331 0.07365517 0.1296331 -0.17677242 0.1296331 -0.16793379 -0.17971861
0.19444965 0.1296331 0.05892414 -0.032408275 -0.08249379 -0.04713931 0.026515862 0.026515862
0.15614896 0.10017103 0.032408275 0.05892414 0.10900965 0.011784827 -0.06481655 0.14141792
0.22096552 0.07660138 -0.10606345 -0.079547584 0.14731035 -0.17087999 0.10900965 -0.15025654
-0.08249379 -0.04713931 0.032408275 0.17971861 -0.16793379 -0.011784827 0.03535448 0.0058924137

MynaNet_DSCNN_SE_Res_Att_Wide/att_ln/add/ReadVariableOp i1 [96] scale=2.7996748e-05 zero_point=11
00000000: 9f1f d941 2237 27f0 e65f 0be0 59fc ea13
00000010: 3bdb e110 fffa 3924 e0f6 06d1 f6e3 54dc
00000020: f0e6 1f0e 04c9 f70c 32cf 492e 221c 0235
00000030: 800d 4cfb 1f4b 35ef 0038 647f e6f2 43f5
00000040: 43ef e4e4 3a14 2b1d c8c7 15f1 cbf1 2b38
00000050: e213 e8d7 157a dc1b 32e0 4741 1942 1805
-0.0030236489 0.00055993494 -0.0013998374 0.0015118244 0.0006439252 0.0012318569 0.00078390894 -0.0007559122
-0.0010358797 0.0023517269 0.0 -0.0012038602 0.0021837463 -0.00041995122 -0.00092389266 0.00022397398
0.0013438439 -0.0013438439 -0.0011758634 0.00013998373 -0.00033596097 -0.00047594472 0.0012878504 0.0006999187
-0.0012038602 -0.0005879317 -0.00013998373 -0.0016238114 -0.0005879317 -0.0011198699 0.0020437627 -0.0013158472
-0.0007559122 -0.0010358797 0.00055993494 8.399024e-05 -0.00019597723 -0.0018477853 -0.00055993494 2.7996748e-05
0.0010918732 -0.0016798049 0.0017357984 0.0009798862 0.0006439252 0.00047594472 -0.00025197072 0.0011758634
-0.003891548 5.5993496e-05 0.0018197886 -0.00044794797 0.00055993494 0.0017917919 0.0011758634 -0.00078390894
-0.00030796422 0.0012598537 0.0024917105 0.0032476229 -0.0010358797 -0.0006999187 0.0015678179 -0.00061592844
0.0015678179 -0.00078390894 -0.0010918732 -0.0010918732 0.0013158472 0.00025197072 0.00089589594 0.00050394144
-0.0018757822 -0.0019037789 0.00027996747 -0.00072791544 -0.0017917919 -0.00072791544 0.00089589594 0.0012598537
-0.0011478667 0.00022397398 -0.0009798862 -0.0014558309 0.00027996747 0.003107639 -0.0013158472 0.00044794797
0.0010918732 -0.0012038602 0.0016798049 0.0015118244 0.00039195447 0.0015398212 0.00036395772 -0.00016798048

MynaNet_DSCNN_SE_Res_Att_Wide/att_ln/mul/ReadVariableOp i1 [96] scale=0.0046799043 zero_point=-128
00000000: 6f42 554e 4f44 4c49 4a47 4a54 5a54 4753
00000010: 4f48 7f4b 3c4a 754a 5d50 4557 4c49 4c56
00000020: 5350 4c42 4749 413f 5943 425f 4449 4a5c
00000030: 5754 4b57 4954 5459 4a4d 535f 5542 5443
00000040: 4b65 514a 445c 5e50 683a 4947 4a59 403b
00000050: 4155 5170 605e 4e4c 4467 6a56 6542 554a
1.1184971 0.90790147 0.9968196 0.9640603 0.96874017 0.91726124 0.95470047 0.9406608
0.9453407 0.93130094 0.9453407 0.9921397 1.0202191 0.9921397 0.93130094 0.98745984
0.96874017 0.93598086 1.1933756 0.95002055 0.879822 0.9453407 1.1465765 0.9453407
1.0342588 0.9734201 0.92194116 1.0061795 0.95470047 0.9406608 0.95470047 1.0014995
0.98745984 0.9734201 0.95470047 0.90790147 0.93130094 0.9406608 0.90322155 0.8938617
1.0155393 0.9125813 0.90790147 1.0436187 0.91726124 0.9406608 0.9453407 1.0295789
1.0061795 0.9921397 0.95002055 1.0061795 0.9406608 0.9921397 0.9921397 1.0155393
0.9453407 0.9593804 0.98745984 1.0436187 0.9968196 0.90790147 0.9921397 0.9125813
0.95002055 1.0716981 0.9781 0.9453407 0.91726124 1.0295789 1.0389388 0.9734201
1.0857378 0.8704622 0.9406608 0.93130094 0.9453407 1.0155393 0.8985416 0.8751421
0.90322155 0.9968196 0.9781 1.123177 1.0482986 1.0389388 0.9640603 0.95470047
0.91726124 1.0810579 1.0950977 1.0014995 1.0716981 0.90790147 0.9968196 0.9453407

MynaNet_DSCNN_SE_Res_Att_Wide/enhanced_mhsa/attention_output/einsum/Einsum i1 [96, 192] scale=0.0018456691 zero_point=0
00000000: 39c8 572d 3b3e b91f 64fd e63a f3ef d4bc
00000010: 0b1a d5d4 f1f8 fa1e e00c cbd9 08ec df08
00000020: e7f5 d0ef a7e2 04f8 1516 f1d3 12e5 07cd
00000030: e63c 08ce 1313 0ff8 b813 fcf8 fb04 edcf
00000040: d234 4afc 0528 3af7 d930 b9de 240c e3f9
00000050: 342d e21d bec9 d82a 16d5 eff8 1fdf 13bc
00000060: 3b0f f1fd f117 04dd 1ae8 fbaa f6d2 552c
00000070: 1f4c ff25 03cf f8f0 e722 37ed f54e d6ef
00000080: 4bdd 05f7 c7bc fdd2 2bbc 31be 1f0b 1af8
00000090: 2b46 dbef 312d 2231 c9c5 f14f 321f cf15
000000a0: 3f12 d533 e2c2 f2b4 2513 e2bf 1ac3 2dcc
000000b0: d128 cdf7 0dd3 3718 f50b 0b24 b7e9 0923
000000c0: c1ea 0b11 15e5 ec46 01db 121e f0d6 dc41
000000d0: b5c6 14e3 2dd3 d71e 39e6 ffe7 f10f e310
000000e0: 01e1 2b3c 0412 3bc7 1de4 e544 1e3b dd0c
000000f0: 2014 07f3 faf3 bbd8 0af9 edd1 ff19 0528
0.10520314 -0.10335747 0.16057321 0.08305511 0.108894475 0.114431486 -0.13104251 0.057215743
0.18456692 -0.0055370075 -0.047987398 0.10704881 -0.023993699 -0.031376377 -0.08120944 -0.1255055
0.02030236 0.047987398 -0.07936377 -0.08120944 -0.027685037 -0.014765353 -0.011074015 0.055370074
-0.05906141 0.02214803 -0.09782046 -0.071981095 0.014765353 -0.036913384 -0.06090708 0.014765353
-0.04614173 -0.02030236 -0.08859212 -0.031376377 -0.16426454 -0.055370074 0.0073826765 -0.014765353
0.038759053 0.04060472 -0.027685037 -0.08305511 0.033222046 -0.049833067 0.012919684 -0.09412912
-0.047987398 0.11074015 0.014765353 -0.09228346 0.035067715 0.035067715 0.027685037 -0.014765353
-0.13288818 0.035067715 -0.0073826765 -0.014765353 -0.009228346 0.0073826765 -0.035067715 -0.090437785
-0.08490078 0.095974796 0.13657951 -0.0073826765 0.009228346 0.07382677 0.10704881 -0.016611023
-0.071981095 0.08859212 -0.13104251 -0.06275275 0.06644409 0.02214803 -0.053524405 -0.012919684
0.095974796 0.08305511 -0.055370074 0.053524405 -0.12181416 -0.1015118 -0.07382677 0.077518106
0.04060472 -0.07936377 -0.031376377 -0.014765353 0.057215743 -0.06090708 0.035067715 -0.1255055
0.108894475 0.027685037 -0.027685037 -0.0055370075 -0.027685037 0.04245039 0.0073826765 -0.06459842
0.047987398 -0.04429606 -0.009228346 -0.15872754 -0.018456692 -0.08490078 0.15688187 0.08120944
0.057215743 0.14027086 -0.0018456691 0.06828976 0.0055370075 -0.090437785 -0.014765353 -0.029530706
-0.04614173 0.06275275 0.1015118 -0.035067715 -0.02030236 0.14396219 -0.077518106 -0.031376377
0.13842519 -0.06459842 0.009228346 -0.016611023 -0.10520314 -0.1255055 -0.0055370075 -0.08490078
0.07936377 -0.1255055 0.090437785 -0.12181416 0.057215743 0.02030236 0.047987398 -0.014765353
0.07936377 0.12919684 -0.06828976 -0.031376377 0.090437785 0.08305511 0.06275275 0.090437785
-0.1015118 -0.108894475 -0.027685037 0.14580786 0.09228346 0.057215743 -0.090437785 0.038759053
0.11627715 0.033222046 -0.07936377 0.09412912 -0.055370074 -0.114431486 -0.025839368 -0.14027086
0.06828976 0.035067715 -0.055370074 -0.119968496 0.047987398 -0.11258581 0.08305511 -0.095974796
-0.08674645 0.07382677 -0.09412912 -0.016611023 0.023993699 -0.08305511 0.1015118 0.04429606
-0.02030236 0.02030236 0.02030236 0.06644409 -0.13473384 -0.04245039 0.016611023 0.06459842
-0.11627715 -0.04060472 0.02030236 0.031376377 0.038759053 -0.049833067 -0.036913384 0.12919684
0.0018456691 -0.06828976 0.033222046 0.055370074 -0.029530706 -0.077518106 -0.06644409 0.119968496
-0.13842519 -0.10704881 0.036913384 -0.053524405 0.08305511 -0.08305511 -0.07567243 0.055370074
0.10520314 -0.047987398 -0.0018456691 -0.04614173 -0.027685037 0.027685037 -0.053524405 0.029530706
0.0018456691 -0.057215743 0.07936377 0.11074015 0.0073826765 0.033222046 0.108894475 -0.10520314
0.053524405 -0.051678736 -0.049833067 0.1255055 0.055370074 0.108894475 -0.06459842 0.02214803
0.05906141 0.036913384 0.012919684 -0.023993699 -0.011074015 -0.023993699 -0.12735116 -0.07382677
0.018456692 -0.012919684 -0.035067715 -0.08674645 -0.0018456691 0.04614173 0.009228346 0.07382677

MynaNet_DSCNN_SE_Res_Att_Wide/enhanced_mhsa/value/add/ReadVariableOp i1 [4, 48] scale=0.0007488025 zero_point=0
00000000: 5c9d 32a8 fc2e cf10 3521 fe12 1624 e1ce
00000010: 3b37 90f0 c239 f8f5 171c 0cfa 2aeb 189b
00000020: f652 db23 c8ec 08fe f2fa ebb2 dbd1 6da4
00000030: f31f ef0e b0ee 31dd db34 531b 26ea b3d8
00000040: ec2e 292d e631 3f52 e7fb bbf2 230f e5ba
00000050: 37dd 0c0e cace a3dc 8fd4 05b9 fab1 96e0
00000060: 2dce 2ed9 291b e1f7 0ee4 afdd dcc2 e324
00000070: f139 3057 0228 02ec 1cdc 23c2 2223 fafb
00000080: 0c21 cd2d dab2 1de1 2309 d5c4 2928 19b6
00000090: c930 28d0 e114 17e1 e1c5 3825 e7bd 22fd
000000a0: f3c3 cd23 5300 fd9d 2a7f 0ac6 eff1 e8b7
000000b0: db1c a1f0 12df 25ef 8036 071c eabc f517
0.06888983 -0.074131444 0.037440125 -0.06589462 -0.00299521 0.034444913 -0.036691323 0.01198084
0.03968653 0.024710482 -0.001497605 0.013478445 0.016473655 0.02695689 -0.023212878 -0.037440125
0.044179346 0.04118414 -0.08386588 -0.01198084 -0.046425756 0.042681742 -0.00599042 -0.008236827
0.017222457 0.02096647 0.00898563 -0.004492815 0.031449705 -0.015724853 0.01797126 -0.075629056
-0.007488025 0.061401807 -0.027705692 0.026208088 -0.04193294 -0.01497605 0.00599042 -0.001497605
-0.010483235 -0.004492815 -0.015724853 -0.058406595 -0.027705692 -0.03519372 0.08161947 -0.06888983
-0.009734432 0.023212878 -0.012729643 0.010483235 -0.0599042 -0.013478445 0.036691323 -0.026208088
-0.027705692 0.03893773 0.06215061 0.020217668 0.028454496 -0.016473655 -0.057657793 -0.0299521
-0.01497605 0.034444913 0.030700903 0.03369611 -0.019468864 0.036691323 0.047174558 0.061401807
-0.018720062 -0.0037440124 -0.051667374 -0.010483235 0.026208088 0.011232037 -0.020217668 -0.052416176
0.04118414 -0.026208088 0.00898563 0.010483235 -0.040435337 -0.037440125 -0.06963863 -0.02695689
-0.08461468 -0.03294731 0.0037440124 -0.053164978 -0.004492815 -0.059155397 -0.07937306 -0.02396168
0.03369611 -0.037440125 0.034444913 -0.029203298 0.030700903 0.020217668 -0.023212878 -0.0067392224
0.010483235 -0.02096647 -0.060653 -0.026208088 -0.02695689 -0.046425756 -0.021715272 0.02695689
-0.011232037 0.042681742 0.03594252 0.06514582 0.001497605 0.0299521 0.001497605 -0.01497605
0.02096647 -0.02695689 0.026208088 -0.046425756 0.025459286 0.026208088 -0.004492815 -0.0037440124
0.00898563 0.024710482 -0.038188927 0.03369611 -0.028454496 -0.058406595 0.021715272 -0.023212878
0.026208088 0.0067392224 -0.032198507 -0.04492815 0.030700903 0.0299521 0.018720062 -0.055411384
-0.04118414 0.03594252 0.0299521 -0.03594252 -0.023212878 0.01497605 0.017222457 -0.023212878
-0.023212878 -0.044179346 0.04193294 0.027705692 -0.018720062 -0.050169766 0.025459286 -0.0022464076
-0.009734432 -0.045676954 -0.038188927 0.026208088 0.06215061 0.0 -0.0022464076 -0.074131444
0.031449705 0.095097914 0.007488025 -0.043430544 -0.012729643 -0.011232037 -0.01797126 -0.05466258
-0.027705692 0.02096647 -0.071136236 -0.01198084 0.013478445 -0.024710482 0.027705692 -0.012729643
-0.09584672 0.040435337 0.0052416176 0.02096647 -0.016473655 -0.05091857 -0.008236827 0.017222457

MynaNet_DSCNN_SE_Res_Att_Wide/enhanced_mhsa/value/einsum/Einsum i1 [192, 96] scale=0.0014851524 zero_point=0
00000000: e8f7 083f 270a f003 100f ef0e 310b 06f9
00000010: fbf6 2ff6 0d1a f242 f0e7 ec11 05f8 18e6
00000020: 02f5 2213 0304 0602 0ced 1306 f1e6 0810
00000030: 13f2 10d2 0022 0b0e f810 0420 15cc 08f2
00000040: c50d fa25 09eb 2941 f40e e632 fc1d dc0b
00000050: 10f1 c6ec 04fd 0f00 ea22 1627 01f4 0716
00000060: eee5 2713 1404 cfdf ec04 0ffc 1a06 f3f7
00000070: 08f4 e601 ff13 f219 1512 f2f0 ebf9 fc03
00000080: e9fb 1e1b 30dd 1118 e0fb 3ce4 01f8 2bd9
00000090: f43e ff2a e2fe fce6 e820 10e8 231c 1af3
000000a0: d50f 1f02 ea0f 3716 1a10 1607 ef20 f7f2
000000b0: 0bdf f3d2 200b 29f8 03e6 0226 0702 0827
000000c0: 0805 e804 ab07 4c0c 01f8 13f5 d501 0226
000000d0: 07fe d8dc ff04 f3e4 fe1c f7fa f60a e901
000000e0: f20a e005 e50f 0912 f418 eaf2 17ff f70f
000000f0: c8f9 f844 09f9 1fed 1500 06f2 6b08 daf5
-0.03564366 -0.013366371 0.011881219 0.0935646 0.057920944 0.014851524 -0.023762438 0.0044554574
0.023762438 0.022277286 -0.02524759 0.020792134 0.072772466 0.016336676 0.008910915 -0.010396067
-0.007425762 -0.014851524 0.069802165 -0.014851524 0.019306982 0.038613964 -0.020792134 0.09802006
-0.023762438 -0.03712881 -0.029703047 0.02524759 0.007425762 -0.011881219 0.03564366 -0.038613964
0.0029703048 -0.016336676 0.05049518 0.028217895 0.0044554574 0.0059406096 0.008910915 0.0029703048
0.01782183 -0.028217895 0.028217895 0.008910915 -0.022277286 -0.038613964 0.011881219 0.023762438
0.028217895 -0.020792134 0.023762438 -0.06831701 0.0 0.05049518 0.016336676 0.020792134
-0.011881219 0.023762438 0.0059406096 0.047524877 0.031188201 -0.07722793 0.011881219 -0.020792134
-0.08762399 0.019306982 -0.008910915 0.05495064 0.013366371 -0.031188201 0.06089125 0.09653491
-0.01782183 0.020792134 -0.038613964 0.07425762 -0.0059406096 0.04306942 -0.053465486 0.016336676
0.023762438 -0.022277286 -0.08613884 -0.029703047 0.0059406096 -0.0044554574 0.022277286 0.0
-0.03267335 0.05049518 0.03267335 0.057920944 0.0014851524 -0.01782183 0.010396067 0.03267335
-0.026732743 -0.040099114 0.057920944 0.028217895 0.029703047 0.0059406096 -0.072772466 -0.04901003
-0.029703047 0.0059406096 0.022277286 -0.0059406096 0.038613964 0.008910915 -0.019306982 -0.013366371
0.011881219 -0.01782183 -0.038613964 0.0014851524 -0.0014851524 0.028217895 -0.020792134 0.03712881
0.031188201 0.026732743 -0.020792134 -0.023762438 -0.031188201 -0.010396067 -0.0059406096 0.0044554574
-0.034158505 -0.007425762 0.044554573 0.040099114 0.07128732 -0.051980335 0.02524759 0.03564366
-0.047524877 -0.007425762 0.089109145 -0.04158427 0.0014851524 -0.011881219 0.06386156 -0.057920944
-0.01782183 0.092079446 -0.0014851524 0.062376402 -0.044554573 -0.0029703048 -0.0059406096 -0.038613964
-0.03564366 0.047524877 0.023762438 -0.03564366 0.051980335 0.04158427 0.038613964 -0.019306982
-0.06386156 0.022277286 0.046039723 0.0029703048 -0.03267335 0.022277286 0.08168338 0.03267335
0.038613964 0.023762438 0.03267335 0.010396067 -0.02524759 0.047524877 -0.013366371 -0.020792134
0.016336676 -0.04901003 -0.019306982 -0.06831701 0.047524877 0.016336676 0.06089125 -0.011881219
0.0044554574 -0.038613964 0.0029703048 0.05643579 0.010396067 0.0029703048 0.011881219 0.057920944
0.011881219 0.007425762 -0.03564366 0.0059406096 -0.12623796 0.010396067 0.11287158 0.01782183
0.0014851524 -0.011881219 0.028217895 -0.016336676 -0.06386156 0.0014851524 0.0029703048 0.05643579
0.010396067 -0.0029703048 -0.059406094 -0.053465486 -0.0014851524 0.0059406096 -0.019306982 -0.04158427
-0.0029703048 0.04158427 -0.013366371 -0.008910915 -0.014851524 0.014851524 -0.034158505 0.0014851524
-0.020792134 0.014851524 -0.047524877 0.007425762 -0.040099114 0.022277286 0.013366371 0.026732743
-0.01782183 0.03564366 -0.03267335 -0.020792134 0.034158505 -0.0014851524 -0.013366371 0.022277286
-0.08316854 -0.010396067 -0.011881219 0.10099036 0.013366371 -0.010396067 0.046039723 -0.028217895
0.031188201 0.0 0.008910915 -0.020792134 0.1589113 0.011881219 -0.05643579 -0.016336676

MynaNet_DSCNN_SE_Res_Att_Wide/enhanced_mhsa/query/add/ReadVariableOp i1 [4, 48] scale=0.0006303266 zero_point=-2
00000000: bdf3 32dc f220 f4f1 07ba f206 0f0e e118
00000010: f3e7 1304 f3a4 1007 16ed 00a4 440a 1113
00000020: cf11 e714 bdf1 f0f5 e9f8 0be0 bed4 4dff
00000030: 342b 7fce 1e45 2a06 f746 ca12 0e10 62ec
00000040: c2e1 2dd3 16f1 f62b 13e9 221f 2927 dece
00000050: 05f4 256b cbf6 eb17 0b27 2e22 de1a 1dbd
00000060: e2b4 9b29 1aad 1238 04e7 b7f9 2509 5cc5
00000070: e606 dcc5 9920 38d7 1b46 1a88 33f7 30d6
00000080: 80eb f9cb dff5 0cf4 d215 249a 06a7 4ae2
00000090: 2527 01ee 8a10 f818 fbc9 f9f8 20eb 03ff
000000a0: 0705 4331 1628 1fe7 6004 e8e1 4c38 5fc9
000000b0: eef3 22d1 860e cfb5 020f cff5 cf48 2af1
-0.04097123 -0.0069335927 0.032776985 -0.021431105 -0.0075639198 0.021431105 -0.006303266 -0.008194246
0.0056729396 -0.04286221 -0.0075639198 0.005042613 0.010715553 0.010085226 -0.018279472 0.016388493
-0.0069335927 -0.014497512 0.013236859 0.0037819599 -0.0069335927 -0.056729395 0.011345879 0.0056729396
0.0151278395 -0.010715553 0.0012606533 -0.056729395 0.044122864 0.0075639198 0.011976206 0.013236859
-0.02962535 0.011976206 -0.014497512 0.013867185 -0.04097123 -0.008194246 -0.008824573 -0.0056729396
-0.013236859 -0.0037819599 0.008194246 -0.018909799 -0.040340904 -0.026473718 0.049795803 0.0006303266
0.03403764 0.028364697 0.081312135 -0.030255679 0.020170452 0.04475319 0.02773437 0.005042613
-0.0044122864 0.045383517 -0.032776985 0.012606532 0.010085226 0.011345879 0.063032664 -0.011345879
-0.037819598 -0.018279472 0.02962535 -0.027104044 0.0151278395 -0.008194246 -0.005042613 0.028364697
0.013236859 -0.013236859 0.022691758 0.020800779 0.027104044 0.025843391 -0.020170452 -0.030255679
0.0044122864 -0.006303266 0.024582738 0.0687056 -0.03214666 -0.005042613 -0.011976206 0.015758166
0.008194246 0.025843391 0.030255679 0.022691758 -0.020170452 0.017649146 0.019540126 -0.04097123
-0.017649146 -0.04664417 -0.062402338 0.027104044 0.017649146 -0.051056456 0.012606532 0.036558945
0.0037819599 -0.014497512 -0.04475319 -0.003151633 0.024582738 0.0069335927 0.0592507 -0.03592862
-0.0151278395 0.005042613 -0.021431105 -0.03592862 -0.06366299 0.021431105 0.036558945 -0.024582738
0.018279472 0.045383517 0.017649146 -0.07437854 0.033407312 -0.0044122864 0.031516332 -0.025213065
-0.079421155 -0.011976206 -0.003151633 -0.03214666 -0.019540126 -0.0056729396 0.008824573 -0.006303266
-0.02773437 0.014497512 0.023952411 -0.063032664 0.005042613 -0.054838415 0.047904823 -0.017649146
0.024582738 0.025843391 0.0018909799 -0.010085226 -0.07311789 0.011345879 -0.0037819599 0.016388493
-0.0018909799 -0.033407312 -0.003151633 -0.0037819599 0.021431105 -0.011976206 0.003151633 0.0006303266
0.0056729396 0.0044122864 0.043492537 0.03214666 0.0151278395 0.026473718 0.020800779 -0.014497512
0.06177201 0.0037819599 -0.013867185 -0.018279472 0.049165476 0.036558945 0.061141685 -0.033407312
-0.010085226 -0.0069335927 0.022691758 -0.028364697 -0.075639196 0.010085226 -0.02962535 -0.046013843
0.0025213065 0.010715553 -0.02962535 -0.0056729396 -0.02962535 0.04664417 0.02773437 -0.008194246

MynaNet_DSCNN_SE_Res_Att_Wide/enhanced_mhsa/query/einsum/Einsum i1 [192, 96] scale=0.0016839727 zero_point=0
00000000: d708 26fb 11f4 1718 0acb 03f7 ff14 f8fd
00000010: 08f8 dffe 0ef5 f201 13e1 feec eef4 032d
00000020: f1eb eecf e4ea 0cff ec09 0913 00f2 ced9
00000030: ce19 0c12 defe ece4 e1fc 0de6 fefc 0a07
00000040: 0507 1123 040f d9f7 da04 10f6 1522 f106
00000050: ece5 fdd9 c8fe fbf7 e500 e53c 0302 130b
00000060: f806 f61c 11ff 37eb f3f8 10f5 f81d dcef
00000070: f4f2 f3d2 fc0d 120b 0efe 0ae7 02e8 010c
00000080: 27f8 0d06 22ef 0a0a f53c 1b04 ec10 ddf1
00000090: 0d11 2508 e400 d1f4 d521 06fa f5fe 0607
000000a0: fe1d 1715 23f0 f7ea e5f8 d0bb fb3a 0420
000000b0: e815 f5ee 1506 0106 f2e2 13e4 0107 001d
000000c0: fcfe 1310 f4f4 f9fd e90f 1202 19e4 100e
000000d0: 0b00 18f3 0019 11ee 0304 0919 15cb 05ff
000000e0: e80f f112 1714 e005 2e0a 19ff d404 0c18
000000f0: f4f2 e10a 2111 010b 1716 12e6 f702 f0fd
-0.06904288 0.013471781 0.06399096 -0.008419863 0.028627535 -0.020207671 0.03873137 0.040415343
0.016839726 -0.08925055 0.005051918 -0.015155754 -0.0016839727 0.03367945 -0.013471781 -0.005051918
0.013471781 -0.013471781 -0.055571098 -0.0033679453 0.023575617 -0.018523699 -0.023575617 0.0016839727
0.03199548 -0.052203152 -0.0033679453 -0.03367945 -0.030311508 -0.020207671 0.005051918 0.07577877
-0.02525959 -0.035363425 -0.030311508 -0.08251466 -0.047151234 -0.037047397 0.020207671 -0.0016839727
-0.03367945 0.015155754 0.015155754 0.03199548 0.0 -0.023575617 -0.08419863 -0.06567493
-0.08419863 0.042099316 0.020207671 0.030311508 -0.05725507 -0.0033679453 -0.03367945 -0.047151234
-0.052203152 -0.0067358906 0.021891644 -0.04378329 -0.0033679453 -0.0067358906 0.016839726 0.0117878085
0.008419863 0.0117878085 0.028627535 0.058939043 0.0067358906 0.02525959 -0.06567493 -0.015155754
-0.06399096 0.0067358906 0.026943563 -0.016839726 0.035363425 0.05725507 -0.02525959 0.010103836
-0.03367945 -0.04546726 -0.005051918 -0.06567493 -0.09430247 -0.0033679453 -0.008419863 -0.015155754
-0.04546726 0.0 -0.04546726 0.10103836 0.005051918 0.0033679453 0.03199548 0.018523699
-0.013471781 0.010103836 -0.016839726 0.047151234 0.028627535 -0.0016839727 0.092618495 -0.035363425
-0.021891644 -0.013471781 0.026943563 -0.018523699 -0.013471781 0.048835207 -0.060623016 -0.028627535
-0.020207671 -0.023575617 -0.021891644 -0.07746274 -0.0067358906 0.021891644 0.030311508 0.018523699
0.023575617 -0.0033679453 0.016839726 -0.042099316 0.0033679453 -0.040415343 0.0016839727 0.020207671
0.06567493 -0.013471781 0.021891644 0.010103836 0.05725507 -0.028627535 0.016839726 0.016839726
-0.018523699 0.10103836 0.04546726 0.0067358906 -0.03367945 0.026943563 -0.058939043 -0.02525959
0.021891644 0.028627535 0.06230699 0.013471781 -0.047151234 0.0 -0.07914671 -0.020207671
-0.07241082 0.055571098 0.010103836 -0.010103836 -0.018523699 -0.0033679453 0.010103836 0.0117878085
-0.0033679453 0.048835207 0.03873137 0.035363425 0.058939043 -0.026943563 -0.015155754 -0.037047397
-0.04546726 -0.013471781 -0.080830686 -0.116194114 -0.008419863 0.09767041 0.0067358906 0.053887125
-0.040415343 0.035363425 -0.018523699 -0.030311508 0.035363425 0.010103836 0.0016839727 0.010103836
-0.023575617 -0.05051918 0.03199548 -0.047151234 0.0016839727 0.0117878085 0.0 0.048835207
-0.0067358906 -0.0033679453 0.03199548 0.026943563 -0.020207671 -0.020207671 -0.0117878085 -0.005051918
-0.03873137 0.02525959 0.030311508 0.0033679453 0.042099316 -0.047151234 0.026943563 0.023575617
0.018523699 0.0 0.040415343 -0.021891644 0.0 0.042099316 0.028627535 -0.030311508
0.005051918 0.0067358906 0.015155754 0.042099316 0.035363425 -0.08925055 0.008419863 -0.0016839727
-0.040415343 0.02525959 -0.02525959 0.030311508 0.03873137 0.03367945 -0.053887125 0.008419863
0.07746274 0.016839726 0.042099316 -0.0016839727 -0.074094795 0.0067358906 0.020207671 0.040415343
-0.020207671 -0.023575617 -0.052203152 0.016839726 0.055571098 0.028627535 0.0016839727 0.018523699
0.03873137 0.037047397 0.030311508 -0.04378329 -0.015155754 0.0033679453 -0.026943563 -0.005051918

MynaNet_DSCNN_SE_Res_Att_Wide/enhanced_mhsa/key/add/ReadVariableOp i1 [4, 48] scale=1.6798036e-06 zero_point=14
00000000: 11ff e914 2e20 e615 2502 fa18 2e17 fc0a
00000010: f6f3 13ef 0114 12f7 1828 17ad 031f 27fd
00000020: 0031 ec16 0de5 e519 2120 2cfd 1d13 13fa
00000030: 1a4e edc0 555b c535 f0c2 32fe 4722 ee01
00000040: 8828 0c1b ff03 1514 2f1c 3623 1901 12ea
00000050: 20e4 4bcb 4b13 141f 0043 2609 dd25 01ff
00000060: 0c36 8a10 18c1 037f 13f7 f005 3336 ddea
00000070: 1b06 1c04 e40f 111c 3340 0e05 021d 2015
00000080: 3ff9 ff0b 1300 0119 2548 21c1 4880 052b
00000090: fb05 180c e106 0b12 09f5 0eff f903 0309
000000a0: 001b adfb f61a 1705 2c0a f3be cb1e 2814
000000b0: 0f02 f132 4010 0726 0422 1615 46b1 100b
5.039411e-06 -2.5197054e-05 -6.2152736e-05 1.0078822e-05 5.3753716e-05 3.0236466e-05 -6.7192144e-05 1.1758625e-05
3.8635484e-05 -2.0157644e-05 -3.3596072e-05 1.6798036e-05 5.3753716e-05 1.5118233e-05 -3.0236466e-05 -6.7192145e-06
-4.0315288e-05 -4.5354696e-05 8.399018e-06 -5.2073912e-05 -2.1837448e-05 1.0078822e-05 6.7192145e-06 -3.8635484e-05
1.6798036e-05 4.3674896e-05 1.5118233e-05 -0.00016294095 -1.847784e-05 2.8556662e-05 4.1995092e-05 -2.8556662e-05
-2.351725e-05 5.8793128e-05 -5.7113324e-05 1.3438429e-05 -1.6798036e-06 -6.887195e-05 -6.887195e-05 1.847784e-05
3.191627e-05 3.0236466e-05 5.039411e-05 -2.8556662e-05 2.5197054e-05 8.399018e-06 8.399018e-06 -3.3596072e-05
2.0157644e-05 0.00010750743 -5.543352e-05 -0.00013102469 0.00011926606 0.00012934487 -0.00012262567 6.5512344e-05
-5.039411e-05 -0.00012766507 6.0472932e-05 -2.6876858e-05 9.574881e-05 3.3596072e-05 -5.3753716e-05 -2.1837448e-05
-0.00022509368 4.3674896e-05 -3.3596073e-06 2.1837448e-05 -2.5197054e-05 -1.847784e-05 1.1758625e-05 1.0078822e-05
5.543352e-05 2.351725e-05 6.7192144e-05 3.5275876e-05 1.847784e-05 -2.1837448e-05 6.7192145e-06 -6.0472932e-05
3.0236466e-05 -7.055175e-05 0.000102468024 -0.00011254684 0.000102468024 8.399018e-06 1.0078822e-05 2.8556662e-05
-2.351725e-05 8.902959e-05 4.0315288e-05 -8.399018e-06 -8.231038e-05 3.8635484e-05 -2.1837448e-05 -2.5197054e-05
-3.3596073e-06 6.7192144e-05 -0.00022173408 3.3596073e-06 1.6798036e-05 -0.00012934487 -1.847784e-05 0.00018981782
8.399018e-06 -3.8635484e-05 -5.039411e-05 -1.5118233e-05 6.2152736e-05 6.7192144e-05 -8.231038e-05 -6.0472932e-05
2.1837448e-05 -1.3438429e-05 2.351725e-05 -1.6798036e-05 -7.055175e-05 1.6798036e-06 5.039411e-06 2.351725e-05
6.2152736e-05 8.3990184e-05 0.0 -1.5118233e-05 -2.0157644e-05 2.5197054e-05 3.0236466e-05 1.1758625e-05
8.231038e-05 -3.5275876e-05 -2.5197054e-05 -5.039411e-06 8.399018e-06 -2.351725e-05 -2.1837448e-05 1.847784e-05
3.8635484e-05 9.742861e-05 3.191627e-05 -0.00012934487 9.742861e-05 -0.00023853211 -1.5118233e-05 4.8714304e-05
-3.191627e-05 -1.5118233e-05 1.6798036e-05 -3.3596073e-06 -7.559116e-05 -1.3438429e-05 -5.039411e-06 6.7192145e-06
-8.399018e-06 -4.1995092e-05 0.0 -2.5197054e-05 -3.5275876e-05 -1.847784e-05 -1.847784e-05 -8.399018e-06
-2.351725e-05 2.1837448e-05 -0.00016294095 -3.191627e-05 -4.0315288e-05 2.0157644e-05 1.5118233e-05 -1.5118233e-05
5.039411e-05 -6.7192145e-06 -4.5354696e-05 -0.00013438429 -0.00011254684 2.6876858e-05 4.3674896e-05 1.0078822e-05
1.6798036e-06 -2.0157644e-05 -4.8714304e-05 6.0472932e-05 8.3990184e-05 3.3596073e-06 -1.1758625e-05 4.0315288e-05
-1.6798036e-05 3.3596072e-05 1.3438429e-05 1.1758625e-05 9.4069e-05 -0.00015622174 3.3596073e-06 -5.039411e-06

MynaNet_DSCNN_SE_Res_Att_Wide/enhanced_mhsa/key/einsum/Einsum i1 [192, 96] scale=0.0019951414 zero_point=0
00000000: 200e edd0 10f4 0410 0a10 ee2a 0fdd 01eb
00000010: 0603 02ec 260a e6f1 e6fa 11e6 121e f4f0
00000020: 01f8 4344 0821 f31f e3e2 21fa 2100 1d07
00000030: 17ee 210e 0a40 153e 09f7 f21c 0dd6 edf1
00000040: 2029 05fc 13ff 25eb f401 1e15 09f1 f301
00000050: e92c 031b 2bdd ffe7 0737 0403 26e9 0fd3
00000060: f206 eef6 02f2 d004 070a 0afa 0efc fe0b
00000070: e414 0520 1514 0b12 e9f6 fa06 070d f7ff
00000080: f60b fc03 f60f fafb f81b ed04 eafc 1120
00000090: 0ded efea fb06 f9f4 fbfe faf4 fadb 23f9
000000a0: 16f3 ee12 1009 2e1a fdf2 0110 f1e8 faed
000000b0: fb03 1f15 02d4 0bdd ee10 f90a ecee f7fc
000000c0: dccb 0516 000a 04eb fbe5 0ae4 ec01 e602
000000d0: 1109 0d36 e40a 0f0f 1808 ff25 faf7 f1ff
000000e0: f819 a6cc 03e7 14f5 1a05 e2eb e0f7 09fe
000000f0: f206 e6f1 f3c7 e3d9 02fd 0cef f809 0ef7
0.063844524 0.027931979 -0.037907686 -0.09576678 0.031922262 -0.023941696 0.007980566 0.031922262
0.019951414 0.031922262 -0.035912544 0.083795935 0.029927121 -0.06982995 0.0019951414 -0.041897967
0.011970848 0.005985424 0.003990283 -0.03990283 0.07581537 0.019951414 -0.051873676 -0.029927121
-0.051873676 -0.011970848 0.033917405 -0.051873676 0.035912544 0.059854243 -0.023941696 -0.031922262
0.0019951414 -0.015961131 0.13367447 0.13566962 0.015961131 0.06583966 -0.025936838 0.06184938
-0.0578591 -0.059854243 0.06583966 -0.011970848 0.06583966 0.0 0.0578591 0.013965989
0.045888253 -0.035912544 0.06583966 0.027931979 0.019951414 0.12768905 0.041897967 0.12369876
0.017956272 -0.017956272 -0.027931979 0.055863958 0.025936838 -0.083795935 -0.037907686 -0.029927121
0.063844524 0.081800796 0.009975707 -0.007980566 0.037907686 -0.0019951414 0.07382023 -0.041897967
-0.023941696 0.0019951414 0.059854243 0.041897967 0.017956272 -0.029927121 -0.025936838 0.0019951414
-0.045888253 0.08778622 0.005985424 0.05386882 0.08579108 -0.06982995 -0.0019951414 -0.049878534
0.013965989 0.10973278 0.007980566 0.005985424 0.07581537 -0.045888253 0.029927121 -0.08978136
-0.027931979 0.011970848 -0.035912544 -0.019951414 0.003990283 -0.027931979 -0.09576678 0.007980566
0.013965989 0.019951414 0.019951414 -0.011970848 0.027931979 -0.007980566 -0.003990283 0.021946555
-0.055863958 0.03990283 0.009975707 0.063844524 0.041897967 0.03990283 0.021946555 0.035912544
-0.045888253 -0.019951414 -0.011970848 0.011970848 0.013965989 0.025936838 -0.017956272 -0.0019951414
-0.019951414 0.021946555 -0.007980566 0.005985424 -0.019951414 0.029927121 -0.011970848 -0.009975707
-0.015961131 0.05386882 -0.037907686 0.007980566 -0.04389311 -0.007980566 0.033917405 0.063844524
0.025936838 -0.037907686 -0.033917405 -0.04389311 -0.009975707 0.011970848 -0.013965989 -0.023941696
-0.009975707 -0.003990283 -0.011970848 -0.023941696 -0.011970848 -0.07382023 0.06982995 -0.013965989
0.04389311 -0.025936838 -0.035912544 0.035912544 0.031922262 0.017956272 0.091776505 0.051873676
-0.005985424 -0.027931979 0.0019951414 0.031922262 -0.029927121 -0.04788339 -0.011970848 -0.037907686
-0.009975707 0.005985424 0.06184938 0.041897967 0.003990283 -0.08778622 0.021946555 -0.06982995
-0.035912544 0.031922262 -0.013965989 0.019951414 -0.03990283 -0.035912544 -0.017956272 -0.007980566
-0.07182509 -0.10574249 0.009975707 0.04389311 0.0 0.019951414 0.007980566 -0.041897967
-0.009975707 -0.05386882 0.019951414 -0.055863958 -0.03990283 0.0019951414 -0.051873676 0.003990283
0.033917405 0.017956272 0.025936838 0.10773764 -0.055863958 0.019951414 0.029927121 0.029927121
0.04788339 0.015961131 -0.0019951414 0.07382023 -0.011970848 -0.017956272 -0.029927121 -0.0019951414
-0.015961131 0.049878534 -0.17956272 -0.10374735 0.005985424 -0.049878534 0.03990283 -0.021946555
0.051873676 0.009975707 -0.059854243 -0.041897967 -0.063844524 -0.017956272 0.017956272 -0.003990283
-0.027931979 0.011970848 -0.051873676 -0.029927121 -0.025936838 -0.11372306 -0.0578591 -0.07781051
0.003990283 -0.005985424 0.023941696 -0.033917405 -0.015961131 0.017956272 0.027931979 -0.017956272

MynaNet_DSCNN_SE_Res_Att_Wide/attention_proj/BiasAdd/ReadVariableOp i1 [96] scale=0.00043762426 zero_point=20
00000000: fef9 d8f4 09fa 5c08 e604 f626 ca11 c818
00000010: ef2f 18c9 1117 fb31 1ddf f900 410b fc82
00000020: 2bf8 5d17 3a64 fdfa 1c01 20fd f3f5 ee1e
00000030: 28c8 e80a 2d4d 2473 e223 f127 3a80 1dfe
00000040: 21ff f910 1bee e429 1bfe ea03 fc31 38f7
00000050: f07f 3c68 3a3b 0e42 f21d 0a4d 5212 fcf8
-0.009627733 -0.011815855 -0.026257455 -0.014003976 -0.0048138667 -0.0113782305 0.031508945 -0.005251491
-0.020130716 -0.007001988 -0.013128728 0.007877236 -0.032384194 -0.0013128727 -0.033259444 0.001750497
-0.016192097 0.011815855 0.001750497 -0.03282182 -0.0013128727 0.0013128727 -0.010940607 0.012691104
0.003938618 -0.023194086 -0.011815855 -0.008752485 0.019693092 -0.003938618 -0.010502982 -0.06389314
0.010065358 -0.012253479 0.03194657 0.0013128727 0.016629722 0.03500994 -0.010065358 -0.0113782305
0.003500994 -0.008314861 0.005251491 -0.010065358 -0.0144416 -0.013566352 -0.016629722 0.0043762424
0.008752485 -0.033259444 -0.019255467 -0.0043762424 0.010940607 0.024944583 0.007001988 0.041574303
-0.021881213 0.006564364 -0.015316849 0.008314861 0.016629722 -0.06476839 0.003938618 -0.009627733
0.0056891153 -0.00919011 -0.011815855 -0.001750497 0.0030633698 -0.016629722 -0.021005964 0.00919011
0.0030633698 -0.009627733 -0.01838022 -0.0074396124 -0.010502982 0.012691104 0.015754472 -0.012691104
-0.015754472 0.046825796 0.01750497 0.03676044 0.016629722 0.017067347 -0.0026257455 0.020130716
-0.014879225 0.003938618 -0.0043762424 0.024944583 0.027132705 -0.0008752485 -0.010502982 -0.012253479

MynaNet_DSCNN_SE_Res_Att_Wide/attention_proj/Tensordot/MatMul1 i1 [96, 384] scale=0.0021497791 zero_point=0
00000000: 2e25 272e 0606 f92f ef38 00ea eee3 f4ef
00000010: 3128 fcdd f5d0 10db d9ed d5f2 39fb 24e2
00000020: 20f2 313f 1127 e60b d0fe 10c2 e639 15b9
00000030: 0003 25d0 fc1d bb0d 1de1 3e22 eafd 4725
00000040: cd43 e503 e82e ea1e 3df2 b7e6 f21c ee29
00000050: 0908 08ed 09f9 d231 e119 d525 2bff 30ff
00000060: 2918 17e7 fc3d 161e 2bb6 ecf5 fc1b d0d9
00000070: 1705 f2c2 3aeb 2122 ba01 d4c5 cfd9 dfcf
00000080: 14db e3ef 04ce 1900 07e2 fc17 03e9 c9e6
00000090: fc04 ab12 e710 e7ec d92e 0e1a 1e30 060f
000000a0: ecef f5cf e60f 01de 1ffa ea00 26da 383a
000000b0: f5c9 f8d8 d901 f610 13d9 18dc 07e4 2e29
000000c0: fdeb d61b f9de 3907 34df ecfe 4138 f506
000000d0: e1c5 ffd9 fcfa 32fd 33de ec2b 26d3 b0fc
000000e0: 25ff 42dd 1dde bb25 e7d4 07f5 d2f5 3f2f
000000f0: ffd5 2b1f d7f8 1254 e6fa 1b36 ccc5 ecc0
0.09888984 0.079541825 0.08384138 0.09888984 0.012898674 0.012898674 -0.015048454 0.10103962
-0.036546245 0.12038763 0.0 -0.047295142 -0.038696025 -0.062343594 -0.025797348 -0.036546245
0.10533918 0.08599117 -0.0085991165 -0.075242266 -0.023647571 -0.103189394 0.034396466 -0.079541825
-0.08384138 -0.040845804 -0.0924405 -0.030096907 0.12253741 -0.010748896 0.07739205 -0.06449337
0.06879293 -0.030096907 0.10533918 0.13543609 0.036546245 0.08384138 -0.055894256 0.023647571
-0.103189394 -0.0042995582 0.034396466 -0.13328631 -0.055894256 0.12253741 0.045145363 -0.15263432
0.0 0.006449337 0.079541825 -0.103189394 -0.0085991165 0.062343594 -0.14833476 0.027947128
0.062343594 -0.066643156 0.13328631 0.07309249 -0.047295142 -0.006449337 0.15263432 0.079541825
-0.109638736 0.1440352 -0.058044035 0.006449337 -0.051594697 0.09888984 -0.047295142 0.06449337
0.13113652 -0.030096907 -0.15693387 -0.055894256 -0.030096907 0.060193814 -0.038696025 0.08814094
0.019348012 0.017198233 0.017198233 -0.040845804 0.019348012 -0.015048454 -0.09888984 0.10533918
-0.066643156 0.053744476 -0.0924405 0.079541825 0.0924405 -0.0021497791 0.103189394 -0.0021497791
0.08814094 0.051594697 0.04944492 -0.053744476 -0.0085991165 0.13113652 0.047295142 0.06449337
0.0924405 -0.15908365 -0.042995583 -0.023647571 -0.0085991165 0.058044035 -0.103189394 -0.08384138
0.04944492 0.010748896 -0.030096907 -0.13328631 0.12468719 -0.045145363 0.07094271 0.07309249
-0.15048453 0.0021497791 -0.094590284 -0.12683697 -0.10533918 -0.08384138 -0.07094271 -0.10533918
0.042995583 -0.079541825 -0.062343594 -0.036546245 0.0085991165 -0.10748895 0.053744476 0.0
0.015048454 -0.06449337 -0.0085991165 0.04944492 0.006449337 -0.04944492 -0.11823785 -0.055894256
-0.0085991165 0.0085991165 -0.18273123 0.038696025 -0.053744476 0.034396466 -0.053744476 -0.042995583
-0.08384138 0.09888984 0.030096907 0.055894256 0.06449337 0.103189394 0.012898674 0.032246687
-0.042995583 -0.036546245 -0.023647571 -0.10533918 -0.055894256 0.032246687 0.0021497791 -0.07309249
0.066643156 -0.012898674 -0.047295142 0.0 0.08169161 -0.08169161 0.12038763 0.12468719
-0.023647571 -0.11823785 -0.017198233 -0.08599117 -0.08384138 0.0021497791 -0.021497792 0.034396466
0.040845804 -0.08384138 0.051594697 -0.07739205 0.015048454 -0.060193814 0.09888984 0.08814094
-0.006449337 -0.045145363 -0.090290725 0.058044035 -0.015048454 -0.07309249 0.12253741 0.015048454
0.11178851 -0.07094271 -0.042995583 -0.0042995582 0.13973564 0.12038763 -0.023647571 0.012898674
-0.066643156 -0.12683697 -0.0021497791 -0.08384138 -0.0085991165 -0.012898674 0.10748895 -0.006449337
0.109638736 -0.07309249 -0.042995583 0.0924405 0.08169161 -0.09674006 -0.17198233 -0.0085991165
0.079541825 -0.0021497791 0.14188541 -0.075242266 0.062343594 -0.07309249 -0.14833476 0.079541825
-0.053744476 -0.094590284 0.015048454 -0.023647571 -0.09888984 -0.023647571 0.13543609 0.10103962
-0.0021497791 -0.0924405 0.0924405 0.066643156 -0.08814094 -0.017198233 0.038696025 0.18058145
-0.055894256 -0.012898674 0.058044035 0.11608807 -0.11178851 -0.12683697 -0.042995583 -0.13758586

MynaNet_DSCNN_SE_Res_Att_Wide/block4_residual_proj/Conv2D i1 [384, 1, 1, 156]
00000000: c12b 0ee2 dedf 3031 26ba fb0b e3e3 e91c
00000010: 11ba e1f1 30c8 eafc e81c 04ed 1dde 8100
00000020: 36ed 3f0d f6f1 ce26 c92a 00e4 273c d0d7
00000030: b5dd fcaf 951e 2238 a3b0 dd31 16e0 d4bc
00000040: d5f7 a6e7 20eb e0f9 21c2 0a1d 17c8 13a3
00000050: ef01 c436 e8f3 1ed6 2616 2b0e ee0d d8fd
00000060: 0ae9 eee4 9399 e434 3ddf 2a0e 0114 0e0a
00000070: b7ca f5e7 2738 4bee 1731 cceb bf41 b7ea
00000080: efee ed49 c758 b39f 0f1f e1fb 18f4 e130
00000090: dedb dabd 4cfc e0ec 09ec 072e 2846 b143
000000a0: ebc7 3ce5 d438 f834 47f0 2707 4d17 0b1a
000000b0: baef 38fd e2ea e10b 480a 5ff6 c355 e3ce
000000c0: e43a 3b18 cdb5 53f4 0705 1d0c fe50 ee4c
000000d0: 2761 9f3d 1306 fe30 0702 55e1 f402 234a
000000e0: 0ede 087d b846 e0ba c3c9 e7ea ddda 4081
000000f0: 43ad ddcc 617a 1c50 e0d9 45ea 53ca c971
-63 43 14 -30 -34 -33 48 49
38 -70 -5 11 -29 -29 -23 28
17 -70 -31 -15 48 -56 -22 -4
-24 28 4 -19 29 -34 -127 0
54 -19 63 13 -10 -15 -50 38
-55 42 0 -28 39 60 -48 -41
-75 -35 -4 -81 -107 30 34 56
-93 -80 -35 49 22 -32 -44 -68
-43 -9 -90 -25 32 -21 -32 -7
33 -62 10 29 23 -56 19 -93
-17 1 -60 54 -24 -13 30 -42
38 22 43 14 -18 13 -40 -3
10 -23 -18 -28 -109 -103 -28 52
61 -33 42 14 1 20 14 10
-73 -54 -11 -25 39 56 75 -18
23 49 -52 -21 -65 65 -73 -22
-17 -18 -19 73 -57 88 -77 -97
15 31 -31 -5 24 -12 -31 48
-34 -37 -38 -67 76 -4 -32 -20
9 -20 7 46 40 70 -79 67
-21 -57 60 -27 -44 56 -8 52
71 -16 39 7 77 23 11 26
-70 -17 56 -3 -30 -22 -31 11
72 10 95 -10 -61 85 -29 -50
-28 58 59 24 -51 -75 83 -12
7 5 29 12 -2 80 -18 76
39 97 -97 61 19 6 -2 48
7 2 85 -31 -12 2 35 74
14 -34 8 125 -72 70 -32 -70
-61 -55 -25 -22 -35 -38 64 -127
67 -83 -35 -52 97 122 28 80
-32 -39 69 -22 83 -54 -55 113

MynaNet_DSCNN_SE_Res_Att_Wide/block4_se_expand/Conv2D i1 [384, 1, 1, 16]
00000000: c207 007f 3963 ead2 d646 21cd b8e3 10a3
00000010: 1415 0df6 20d0 e3e4 86fc eeeb 54cd 7fba
00000020: d0dc ef24 e30f 1a00 7f42 1461 2844 0af0
00000030: e15b c51c 2b1b f8ba c90c 1f7f cb02 bba1
00000040: e251 032f f60b f5d6 3b45 7f53 26df 1311
00000050: f7a8 fd6c 1a7f 7139 2ecf 053d 0061 f25a
00000060: 3423 06f9 50cd 117f ed53 74d8 1cc4 5b28
00000070: 7fa2 c022 b71d 0c22 0623 8cc9 bf68 634b
00000080: 2088 e972 1c0f cf81 1b4a 8ca9 4b11 0632
00000090: 08ee 651a 1af3 295e 7067 4f7f 2dc1 4946
000000a0: 3720 2e66 1145 f92d 0bf3 d97f db2e f8fa
000000b0: 8e59 c8cc cb24 c730 7fcc cb4d 24e4 0659
000000c0: 390b 347f d33d ed3b 3907 f42c 0626 4afc
000000d0: 2e7f 1826 5147 ad2a 1929 57ff 6439 e6d3
000000e0: 7f18 3ee8 b033 f65a da2a 0fe7 39d3 4168
000000f0: d1eb d715 1edc 23f6 1476 117f 44cb ef1f
-62 7 0 127 57 99 -22 -46
-42 70 33 -51 -72 -29 16 -93
20 21 13 -10 32 -48 -29 -28
-122 -4 -18 -21 84 -51 127 -70
-48 -36 -17 36 -29 15 26 0
127 66 20 97 40 68 10 -16
-31 91 -59 28 43 27 -8 -70
-55 12 31 127 -53 2 -69 -95
-30 81 3 47 -10 11 -11 -42
59 69 127 83 38 -33 19 17
-9 -88 -3 108 26 127 113 57
46 -49 5 61 0 97 -14 90
52 35 6 -7 80 -51 17 127
-19 83 116 -40 28 -60 91 40
127 -94 -64 34 -73 29 12 34
6 35 -116 -55 -65 104 99 75
32 -120 -23 114 28 15 -49 -127
27 74 -116 -87 75 17 6 50
8 -18 101 26 26 -13 41 94
112 103 79 127 45 -63 73 70
55 32 46 102 17 69 -7 45
11 -13 -39 127 -37 46 -8 -6
-114 89 -56 -52 -53 36 -57 48
127 -52 -53 77 36 -28 6 89
57 11 52 127 -45 61 -19 59
57 7 -12 44 6 38 74 -4
46 127 24 38 81 71 -83 42
25 41 87 -1 100 57 -26 -45
127 24 62 -24 -80 51 -10 90
-38 42 15 -25 57 -45 65 104
-47 -21 -41 21 30 -36 35 -10
20 118 17 127 68 -53 -17 31

MynaNet_DSCNN_SE_Res_Att_Wide/block4_se_reduce/Conv2D i1 [16, 1, 1, 384]
00000000: 3046 291d cd70 dcec 06fd e6d0 4b1d eed2
00000010: 4aec 4958 163c d64f cf0e cc22 638e e314
00000020: e205 e13a c2ee be32 fb0f c2da 9507 e8a5
00000030: 2d6b d704 f4d2 c125 eddc 09cb efde 24af
00000040: 28e4 d90e bef3 5cd2 061f adfc dce8 041d
00000050: 2632 ffe6 063a e9e1 f211 e5c0 2d45 35fb
00000060: 5f7e f3e9 fc0b 25cf 3228 fd46 a939 01e8
00000070: ec2e e5ee 5fea 04f4 c75e 39a5 3829 f84c
00000080: 0cda 2ee8 362d c747 a926 fffb 4f3a c1ea
00000090: 2301 d9c1 9fe5 eb02 c6fa 13ae 1c15 b8cb
000000a0: 1fc3 ddc3 d351 e80e 014a ff22 f0d2 b612
000000b0: 0e12 f03e d933 dd28 0989 f2c0 f5e4 d55b
000000c0: 1f1e f8b2 b642 d938 9f22 1f0b 010d cd1c
000000d0: 2904 e8d2 ab10 eb44 eadf 2d18 fadb c5c5
000000e0: 1318 f91c f247 0602 24fd 22c1 cdaa 2de9
000000f0: 30a5 eeee f8b2 0829 ea17 3cb6 dd39 e2c0
48 70 41 29 -51 112 -36 -20
6 -3 -26 -48 75 29 -18 -46
74 -20 73 88 22 60 -42 79
-49 14 -52 34 99 -114 -29 20
-30 5 -31 58 -62 -18 -66 50
-5 15 -62 -38 -107 7 -24 -91
45 107 -41 4 -12 -46 -63 37
-19 -36 9 -53 -17 -34 36 -81
40 -28 -39 14 -66 -13 92 -46
6 31 -83 -4 -36 -24 4 29
38 50 -1 -26 6 58 -23 -31
-14 17 -27 -64 45 69 53 -5
95 126 -13 -23 -4 11 37 -49
50 40 -3 70 -87 57 1 -24
-20 46 -27 -18 95 -22 4 -12
-57 94 57 -91 56 41 -8 76
12 -38 46 -24 54 45 -57 71
-87 38 -1 -5 79 58 -63 -22
35 1 -39 -63 -97 -27 -21 2
-58 -6 19 -82 28 21 -72 -53
31 -61 -35 -61 -45 81 -24 14
1 74 -1 34 -16 -46 -74 18
14 18 -16 62 -39 51 -35 40
9 -119 -14 -64 -11 -28 -43 91
31 30 -8 -78 -74 66 -39 56
-97 34 31 11 1 13 -51 28
41 4 -24 -46 -85 16 -21 68
-22 -33 45 24 -6 -37 -59 -59
19 24 -7 28 -14 71 6 2
36 -3 34 -63 -51 -86 45 -23
48 -91 -18 -18 -8 -78 8 41
-22 23 60 -74 -35 57 -30 -64

MynaNet_DSCNN_SE_Res_Att_Wide/block4_pointwise/Conv2D i1 [384, 1, 1, 156]
00000000: 2048 21fc cefc d617 1425 2400 dd10 0ce5
00000010: c225 000c 0329 e5f3 cd2a d8f4 050b f4d2
00000020: 1639 c4be 1345 1b1f 02ac 1fe0 e333 ec15
00000030: 020a dfd9 0f25 dc0e fe12 ef14 1fdd f523
00000040: edda 0bcc f11c 21a6 3bdd 4cea bded 0fa7
00000050: 211d bc03 dbdf e2db 1a1a d708 2550 7f16
00000060: d124 f431 c9ee 3d09 211d ebcb f101 10f9
00000070: 19eb 4c11 f5e7 03f5 c321 070d bcf6 1013
00000080: 11fd d6b3 eaf3 76bf e8cd 3de5 dbda 2f16
00000090: c015 dfd5 bf2c d304 fae1 4de6 2df2 6c0d
000000a0: ff37 1647 1d4c 1400 0a42 33f3 ea02 f5b3
000000b0: 530f fcb8 c43c 5fe6 1ecb e4d9 97bd bd35
000000c0: c6d6 f43f e6e2 c9c9 0027 00c6 1a6b 450a
000000d0: e4c0 cb1b 0010 4beb e8e8 3aeb ee22 3cc5
000000e0: dd26 f302 b6d3 c9b2 de12 bf1a e93b 0bb3
000000f0: 245c c63e 07b3 32c7 231b d6c0 f4e7 3a0f
32 72 33 -4 -50 -4 -42 23
20 37 36 0 -35 16 12 -27
-62 37 0 12 3 41 -27 -13
-51 42 -40 -12 5 11 -12 -46
22 57 -60 -66 19 69 27 31
2 -84 31 -32 -29 51 -20 21
2 10 -33 -39 15 37 -36 14
-2 18 -17 20 31 -35 -11 35
-19 -38 11 -52 -15 28 33 -90
59 -35 76 -22 -67 -19 15 -89
33 29 -68 3 -37 -33 -30 -37
26 26 -41 8 37 80 127 22
-47 36 -12 49 -55 -18 61 9
33 29 -21 -53 -15 1 16 -7
25 -21 76 17 -11 -25 3 -11
-61 33 7 13 -68 -10 16 19
17 -3 -42 -77 -22 -13 118 -65
-24 -51 61 -27 -37 -38 47 22
-64 21 -33 -43 -65 44 -45 4
-6 -31 77 -26 45 -14 108 13
-1 55 22 71 29 76 20 0
10 66 51 -13 -22 2 -11 -77
83 15 -4 -72 -60 60 95 -26
30 -53 -28 -39 -105 -67 -67 53
-58 -42 -12 63 -26 -30 -55 -55
0 39 0 -58 26 107 69 10
-28 -64 -53 27 0 16 75 -21
-24 -24 58 -21 -18 34 60 -59
-35 38 -13 2 -74 -45 -55 -78
-34 18 -65 26 -23 59 11 -77
36 92 -58 62 7 -77 50 -57
35 27 -42 -64 -12 -25 58 15

MynaNet_DSCNN_SE_Res_Att_Wide/block4_depthwise_bn/FusedBatchNormV3;MynaNet_DSCNN_SE_Res_Att_Wide/block4_depthwise/depthwise i1 [1, 3, 3, 156]
00000000: 3e9d 841a fa81 cc18 29a5 10d9 812b 7f2b
00000010: 8f6f 7fc3 81de 2503 bbc5 2dac 0fa6 b77f
00000020: 135a 047f f894 7f1a 6795 af3b 37f1 4f52
00000030: a4de 93ed b65f 442d c386 cecd 1bb9 0031
00000040: 6dd0 ca34 fa2e 5895 777f 5565 7fb9 f7b7
00000050: 78ca f22f e806 a47f 5381 7f15 7f24 03e3
00000060: 810f 2881 dfb7 81a3 d6f0 d4ee 2c32 5800
00000070: 5de3 d038 ae06 dc7f c32f 684d f707 88cc
00000080: c87f fbf3 cf0b 7fbf 82eb 20ae 0581 9fbe
00000090: 7f0d 8168 c081 58f6 fa81 b1d7 d297 c5f5
000000a0: bde2 f901 cc86 3087 b743 ce5b 3a8b d5db
000000b0: b504 7f7f dcfe 37a9 380f 0730 2bee 7f54
000000c0: df45 695f 0f7f 81c1 7833 3132 07df d981
000000d0: 8102 43b6 cc01 c590 aa81 813b d391 9b4e
000000e0: 91b5 0181 07bc daca fcd0 8716 6b0c 7f20
000000f0: efea 8138 7fdb 1251 187f 7b7f c10e b36b
62 -99 -124 26 -6 -127 -52 24
41 -91 16 -39 -127 43 127 43
-113 111 127 -61 -127 -34 37 3
-69 -59 45 -84 15 -90 -73 127
19 90 4 127 -8 -108 127 26
103 -107 -81 59 55 -15 79 82
-92 -34 -109 -19 -74 95 68 45
-61 -122 -50 -51 27 -71 0 49
109 -48 -54 52 -6 46 88 -107
119 127 85 101 127 -71 -9 -73
120 -54 -14 47 -24 6 -92 127
83 -127 127 21 127 36 3 -29
-127 15 40 -127 -33 -73 -127 -93
-42 -16 -44 -18 44 50 88 0
93 -29 -48 56 -82 6 -36 127
-61 47 104 77 -9 7 -120 -52
-56 127 -5 -13 -49 11 127 -65
-126 -21 32 -82 5 -127 -97 -66
127 13 -127 104 -64 -127 88 -10
-6 -127 -79 -41 -46 -105 -59 -11
-67 -30 -7 1 -52 -122 48 -121
-73 67 -50 91 58 -117 -43 -37
-75 4 127 127 -36 -2 55 -87
56 15 7 48 43 -18 127 84
-33 69 105 95 15 127 -127 -63
120 51 49 50 7 -33 -39 -127
-127 2 67 -74 -52 1 -59 -112
-86 -127 -127 59 -45 -111 -101 78
-111 -75 1 -127 7 -68 -38 -54
-4 -48 -121 22 107 12 127 32
-17 -22 -127 56 127 -37 18 81
24 127 123 127 -63 14 -77 107
