results_linux/1e_dscnn_se_res_att_wide_mels64_drop05_rand42_warm70_mixup0.2_split80:10:10_linux/model_int8.tflite (tflite, 541640 bytes, 33 tensors)

MynaNet_DSCNN_SE_Res_Att_Wide/output/MatMul i1 [10, 192] scale=0.0028515474 zero_point=0
00000000: da1c ea38 f526 4123 3845 f5ec 202f 07f2
00000010: ca25 10c8 d5b9 4a0a 17d8 eb15 dee0 1cb3
00000020: de0e e209 d2be e434 210c 3f07 2fcf cd23
00000030: 292b 133d 0697 1e1c fef4 33c6 f7cd d1f3
00000040: 2dc3 0421 f8ba b71a ebc0 1ce1 1526 17b3
00000050: 29df d3fa 04ec d1c8 f5e6 fd1c daff 3ab0
00000060: c61b c8d8 c018 07f7 2d1f 28a9 f5f8 1b30
00000070: 3a1b 1e1c d0d0 f30e c6b3 e009 cfb4 2ec4
00000080: 00a5 0ab6 182c 38db 2228 1c0d 24f4 d331
00000090: f9bd 2bff 3a34 f211 ebfe cedf 002b 8e1b
000000a0: d3fa e8d6 0230 f203 0ebf 10cf fcf2 0fda
000000b0: 0ea6 f93a 1bf5 181c ea0d f710 3a3a 1b02
000000c0: 051f be34 0128 2be0 2d10 cda5 45a3 fa0c
000000d0: 2c03 261b b20d 0b34 2b15 e9e4 eb1c 810d
000000e0: be2f 0ba8 9cd7 14e4 2535 e929 eb12 d7df
000000f0: 1319 c2d4 0829 12e8 abd8 1e17 45e6 1730
-0.1083588 0.07984333 -0.062734045 0.15968665 -0.031367023 0.1083588 0.18535058 0.09980416
0.15968665 0.19675678 -0.031367023 -0.05703095 0.09124952 0.13402273 0.019960832 -0.039921664
-0.15398356 0.105507255 0.04562476 -0.15968665 -0.12261654 -0.20245987 0.21101451 0.028515475
0.06558559 -0.1140619 -0.059882496 0.059882496 -0.09695261 -0.09124952 0.07984333 -0.21956915
-0.09695261 0.039921664 -0.08554643 0.025663927 -0.13117118 -0.18820213 -0.07984333 0.14828047
0.094101064 0.03421857 0.17964749 0.019960832 0.13402273 -0.13972582 -0.14542893 0.09980416
0.116913445 0.12261654 0.0541794 0.1739444 0.017109284 -0.2994125 0.08554643 0.07984333
-0.005703095 -0.03421857 0.14542893 -0.16538975 -0.025663927 -0.14542893 -0.13402273 -0.037070118
0.12831964 -0.1739444 0.01140619 0.094101064 -0.02281238 -0.19960833 -0.20816296 0.074140236
-0.059882496 -0.18249904 0.07984333 -0.08839797 0.059882496 0.1083588 0.06558559 -0.21956915
0.116913445 -0.094101064 -0.12831964 -0.017109284 0.01140619 -0.05703095 -0.13402273 -0.15968665
-0.031367023 -0.074140236 -0.008554642 0.07984333 -0.1083588 -0.0028515474 0.16538975 -0.2281238
-0.16538975 0.07699178 -0.15968665 -0.1140619 -0.18249904 0.06843714 0.019960832 -0.025663927
0.12831964 0.08839797 0.1140619 -0.24808463 -0.031367023 -0.02281238 0.07699178 0.13687427
0.16538975 0.07699178 0.08554643 0.07984333 -0.13687427 -0.13687427 -0.037070118 0.039921664
-0.16538975 -0.21956915 -0.09124952 0.025663927 -0.13972582 -0.2167176 0.13117118 -0.17109285
0.0 -0.25949082 0.028515475 -0.21101451 0.06843714 0.12546809 0.15968665 -0.105507255
0.09695261 0.1140619 0.07984333 0.037070118 0.10265571 -0.03421857 -0.12831964 0.13972582
-0.019960832 -0.19105367 0.12261654 -0.0028515474 0.16538975 0.14828047 -0.039921664 0.048476305
-0.059882496 -0.005703095 -0.14257737 -0.094101064 0.0 0.12261654 -0.3250764 0.07699178
-0.12831964 -0.017109284 -0.06843714 -0.11976499 0.005703095 0.13687427 -0.039921664 0.008554642
0.039921664 -0.18535058 0.04562476 -0.13972582 -0.01140619 -0.039921664 0.042773213 -0.1083588
0.039921664 -0.25663927 -0.019960832 0.16538975 0.07699178 -0.031367023 0.06843714 0.07984333
-0.062734045 0.037070118 -0.025663927 0.04562476 0.16538975 0.16538975 0.07699178 0.005703095
0.014257737 0.08839797 -0.18820213 0.14828047 0.0028515474 0.1140619 0.12261654 -0.09124952
0.12831964 0.04562476 -0.14542893 -0.25949082 0.19675678 -0.2651939 -0.017109284 0.03421857
0.12546809 0.008554642 0.1083588 0.07699178 -0.2224207 0.037070118 0.031367023 0.14828047
0.12261654 0.059882496 -0.06558559 -0.07984333 -0.059882496 0.07984333 -0.36214653 0.037070118
-0.18820213 0.13402273 0.031367023 -0.25093618 -0.28515473 -0.116913445 0.05703095 -0.07984333
0.105507255 0.15113202 -0.06558559 0.116913445 -0.059882496 0.051327854 -0.116913445 -0.094101064
0.0541794 0.07128868 -0.17679594 -0.12546809 0.02281238 0.116913445 0.051327854 -0.06843714
-0.24238153 -0.1140619 0.08554643 0.06558559 0.19675678 -0.074140236 0.06558559 0.13687427

MynaNet_DSCNN_SE_Res_Att_Wide/fc1_bn/batchnorm/mul_1 i1 [192, 96] scale=0.0033391828 zero_point=0
00000000: d918 03f5 0507 f30e f412 44cd 2cfc c303
00000010: 4019 1bfc 20ff ed0a 1119 e83c e316 d41b
00000020: e303 0508 d70e f9dd 2132 0a0d 00f7 0ae9
00000030: af24 c026 bbde 2bea 324d 0019 47fc 29b5
00000040: 1f2c f1e6 1d04 fe0c 17e1 e7e8 01c9 dbe0
00000050: c7cf cc0d fdce 02da d8fd eeeb d51d 3dd2
00000060: fb03 fb0f de17 1902 09eb f63d e63a 1619
00000070: d312 c421 ca0e d716 3bfc c3d0 f2b5 07ef
00000080: f6c8 d1ee ddd0 e2f1 26cc bfbf db33 d515
00000090: d71e fdfd 0731 d3e7 0ec9 f2e1 402d 02f2
000000a0: ebc3 f4f0 cff5 f01c d1eb ea19 d50c e9d2
000000b0: 000f cb0d edcb e534 e3f2 0e1b e7e6 0409
000000c0: fbe0 0ae4 e9fa dd1a 1cf0 04cb 01e6 ddf5
000000d0: 09ef 0a0f 3ef1 3109 cffe 1b29 b00f 19e6
000000e0: eb3d 0612 e8f8 26d4 d401 0510 def6 2422
000000f0: 29c8 172c dfde fa04 fe2b e915 07fb 2623
-0.13022813 0.08014039 0.010017549 -0.036731012 0.016695915 0.02337428 -0.043409377 0.04674856
-0.040070195 0.06010529 0.22706443 -0.17029832 0.14692405 -0.013356731 -0.20369016 0.010017549
0.2137077 0.08347957 0.09015793 -0.013356731 0.10685385 -0.0033391828 -0.06344447 0.03339183
0.056766108 0.08347957 -0.08014039 0.20035097 -0.0968363 0.073462024 -0.14692405 0.09015793
-0.0968363 0.010017549 0.016695915 0.026713463 -0.13690649 0.04674856 -0.02337428 -0.1168714
0.11019304 0.16695914 0.03339183 0.043409377 0.0 -0.030052645 0.03339183 -0.0768012
-0.2704738 0.12021058 -0.2137077 0.12688895 -0.23040362 -0.113532215 0.14358486 -0.073462024
0.16695914 0.25711706 0.0 0.08347957 0.23708197 -0.013356731 0.13690649 -0.25043872
0.103514664 0.14692405 -0.050087743 -0.086818755 0.0968363 0.013356731 -0.0066783656 0.040070195
0.0768012 -0.103514664 -0.08347957 -0.08014039 0.0033391828 -0.18365505 -0.12354977 -0.10685385
-0.19033343 -0.16361997 -0.17363751 0.043409377 -0.010017549 -0.16695914 0.0066783656 -0.12688895
-0.13356732 -0.010017549 -0.06010529 -0.07012284 -0.14358486 0.0968363 0.20369016 -0.1536024
-0.016695915 0.010017549 -0.016695915 0.050087743 -0.113532215 0.0768012 0.08347957 0.0066783656
0.030052645 -0.07012284 -0.03339183 0.20369016 -0.086818755 0.1936726 0.073462024 0.08347957
-0.15026322 0.06010529 -0.20035097 0.11019304 -0.18031587 0.04674856 -0.13690649 0.073462024
0.19701178 -0.013356731 -0.20369016 -0.16028078 -0.04674856 -0.25043872 0.02337428 -0.056766108
-0.03339183 -0.18699424 -0.1569416 -0.06010529 -0.1168714 -0.16028078 -0.100175485 -0.050087743
0.12688895 -0.17363751 -0.21704689 -0.21704689 -0.12354977 0.17029832 -0.14358486 0.07012284
-0.13690649 0.100175485 -0.010017549 -0.010017549 0.02337428 0.16361997 -0.15026322 -0.08347957
0.04674856 -0.18365505 -0.04674856 -0.103514664 0.2137077 0.15026322 0.0066783656 -0.04674856
-0.07012284 -0.20369016 -0.040070195 -0.053426925 -0.16361997 -0.036731012 -0.053426925 0.09349712
-0.1569416 -0.07012284 -0.073462024 0.08347957 -0.14358486 0.040070195 -0.0768012 -0.1536024
0.0 0.050087743 -0.1769767 0.043409377 -0.06344447 -0.1769767 -0.09015793 0.17363751
-0.0968363 -0.04674856 0.04674856 0.09015793 -0.08347957 -0.086818755 0.013356731 0.030052645
-0.016695915 -0.10685385 0.03339183 -0.09349712 -0.0768012 -0.020035097 -0.1168714 0.086818755
0.09349712 -0.053426925 0.013356731 -0.1769767 0.0033391828 -0.086818755 -0.1168714 -0.036731012
0.030052645 -0.056766108 0.03339183 0.050087743 0.20702933 -0.050087743 0.16361997 0.030052645
-0.16361997 -0.0066783656 0.09015793 0.13690649 -0.26713464 0.050087743 0.08347957 -0.086818755
-0.07012284 0.20369016 0.020035097 0.06010529 -0.08014039 -0.026713463 0.12688895 -0.14692405
-0.14692405 0.0033391828 0.016695915 0.053426925 -0.113532215 -0.03339183 0.12021058 0.113532215
0.13690649 -0.18699424 0.0768012 0.14692405 -0.11019304 -0.113532215 -0.020035097 0.013356731
-0.0066783656 0.14358486 -0.0768012 0.07012284 0.02337428 -0.016695915 0.12688895 0.1168714

MynaNet_DSCNN_SE_Res_Att_Wide/att_ln/add/ReadVariableOp i1 [96] scale=3.081411e-05 zero_point=4
00000000: 1ef5 c8d4 540c 2bcf 1cdf 2118 fa48 d619
00000010: 0836 d809 e115 0cd5 a7c6 08a7 542e 2b24
00000020: c5e7 012a fbe6 49ed 23ad 261d 2521 12db
00000030: fe04 ab1e 3c39 e6e6 8ccf 7f2e 1a80 2010
00000040: f12b 211c 613c f036 2064 405c 1d02 ef5b
00000050: 0e7e 2d11 f9ff f357 3ede fc0e 031b 31f8
0.00080116687 -0.00046221164 -0.0018488466 -0.0014790773 0.002465129 0.00024651288 0.0012017502 -0.0016331478
0.00073953863 -0.0011401221 0.0008936092 0.0006162822 -0.0003081411 0.0020953594 -0.0014174491 0.0006470963
0.00012325644 0.0015407054 -0.0013558208 0.00015407056 -0.0010784939 0.00052383984 0.00024651288 -0.0014482632
-0.0028657122 -0.0019104748 0.00012325644 -0.0028657122 0.002465129 0.0012941926 0.0012017502 0.0009860515
-0.0019412889 -0.0008936092 -9.244233e-05 0.0011709362 -0.000277327 -0.0009244233 0.0021261736 -0.00070872455
0.0009552374 -0.0026808276 0.0010476797 0.0007703527 0.0010168656 0.0008936092 0.00043139752 -0.0012633785
-0.00018488466 0.0 -0.0027424558 0.00080116687 0.0017255901 0.0016331478 -0.0009244233 -0.0009244233
-0.003697693 -0.0016331478 0.0037901355 0.0012941926 0.0006779104 -0.0040674624 0.00086279504 0.00036976932
-0.0005854681 0.0012017502 0.0008936092 0.00073953863 0.0028657122 0.0017255901 -0.0006162822 0.0015407054
0.00086279504 0.0029581545 0.0018488466 0.0027116416 0.0007703527 -6.162822e-05 -0.0006470963 0.0026808276
0.0003081411 0.0037593213 0.0012633785 0.00040058343 -0.0003389552 -0.00015407056 -0.00052383984 0.002557571
0.0017872184 -0.0011709362 -0.00024651288 0.0003081411 -3.081411e-05 0.00070872455 0.0013866349 -0.00036976932

MynaNet_DSCNN_SE_Res_Att_Wide/att_ln/mul/ReadVariableOp i1 [96] scale=0.0046963287 zero_point=-128
00000000: 4b4b 5257 483f 474c 4e4d 477c 544c 5149
00000010: 574a 5348 3f52 563c 5442 625e 726e 3f3e
00000020: 4d65 5840 5e48 523c 434d 4453 4e64 463f
00000030: 513e 5360 4f5c 534b 4f72 3f4a 5157 5048
00000040: 4757 5351 4848 4049 5235 4e46 443e 6547
00000050: 584a 3854 7f47 3f4f 5b5f 4f5a 344e 413f
0.9533547 0.9533547 0.986229 1.0097107 0.9392657 0.89699876 0.9345694 0.958051
0.9674437 0.9627474 0.9345694 1.1834748 0.9956217 0.958051 0.9815327 0.94396204
1.0097107 0.9486584 0.9909254 0.9392657 0.89699876 0.986229 1.0050143 0.8829098
0.9956217 0.91108775 1.0613703 1.042585 1.1365116 1.1177262 0.89699876 0.89230245
0.9627474 1.0754592 1.014407 0.90169513 1.042585 0.9392657 0.986229 0.8829098
0.91578406 0.9627474 0.92048043 0.9909254 0.9674437 1.070763 0.92987305 0.89699876
0.9815327 0.89230245 0.9909254 1.0519776 0.97214 1.0331923 0.9909254 0.9533547
0.97214 1.1365116 0.89699876 0.9486584 0.9815327 1.0097107 0.9768364 0.9392657
0.9345694 1.0097107 0.9909254 0.9815327 0.9392657 0.9392657 0.90169513 0.94396204
0.986229 0.8500355 0.9674437 0.92987305 0.92048043 0.89230245 1.0754592 0.9345694
1.014407 0.9486584 0.8641245 0.9956217 1.1975638 0.9345694 0.89699876 0.97214
1.028496 1.0472813 0.97214 1.0237997 0.8453392 0.9674437 0.90639144 0.89699876

MynaNet_DSCNN_SE_Res_Att_Wide/enhanced_mhsa/attention_output/einsum/Einsum i1 [96, 192] scale=0.0019586778 zero_point=0
00000000: 00e5 efbb cc16 5fe4 2edb d921 c9ec df32
00000010: f4d6 f60d 340b 11f9 0dcd 30fa 1fde ce29
00000020: 3614 f324 ea3d 210f ebef 060e ff37 2819
00000030: 34f9 c725 23ef 0202 c924 121e 260f 020c
00000040: 04d2 2221 3a00 292c 2bc9 c4ef f21f f5dc
00000050: ddfd 2ed3 2429 eee2 170b f80e e9fe e704
00000060: 3717 0bef d217 e6ed 03ef e2e0 21da 1ed9
00000070: 2838 c8ec 09c7 f927 08e9 ed11 01d6 363a
00000080: 04c9 fafd 0db6 cbec 1105 10be ce0d 31d5
00000090: 00b4 0cfc caff 02fb 0be7 ed29 15e5 2027
000000a0: d600 081e 07df 162b ecf4 e9d0 160e cb17
000000b0: 0b1b 12e8 3fe4 21ff ea03 54ef 2702 e332
000000c0: 32f7 fc1e e3c6 e0f3 03f8 0aea 161d 23e4
000000d0: 0716 d2db fd28 ff26 df24 fcf3 341a 0727
000000e0: 3b05 2bc8 16b5 f708 e01c edff 39d5 0103
000000f0: feef f1bb e1d9 f1c6 2b17 c80e b61b e9e1
0.0 -0.0528843 -0.033297524 -0.13514876 -0.10185125 0.04309091 0.18607439 -0.05484298
0.09009918 -0.072471075 -0.07638843 0.064636365 -0.107727274 -0.039173555 -0.064636365 0.09793389
-0.023504134 -0.08226447 -0.019586777 0.025462812 0.10185125 0.021545455 0.033297524 -0.013710745
0.025462812 -0.099892564 0.09401654 -0.011752067 0.06071901 -0.06659505 -0.09793389 0.08030579
0.1057686 0.039173555 -0.025462812 0.0705124 -0.04309091 0.11947934 0.064636365 0.029380167
-0.041132234 -0.033297524 0.011752067 0.02742149 -0.0019586778 0.107727274 0.07834711 0.048966944
0.10185125 -0.013710745 -0.11164463 0.072471075 0.06855372 -0.033297524 0.0039173556 0.0039173556
-0.107727274 0.0705124 0.0352562 0.058760334 0.07442976 0.029380167 0.0039173556 0.023504134
0.007834711 -0.09009918 0.06659505 0.064636365 0.11360331 0.0 0.08030579 0.08618182
0.084223144 -0.107727274 -0.11752067 -0.033297524 -0.02742149 0.06071901 -0.021545455 -0.0705124
-0.06855372 -0.0058760336 0.09009918 -0.0881405 0.0705124 0.08030579 -0.0352562 -0.058760334
0.04504959 0.021545455 -0.015669422 0.02742149 -0.04504959 -0.0039173556 -0.048966944 0.007834711
0.107727274 0.04504959 0.021545455 -0.033297524 -0.09009918 0.04504959 -0.050925624 -0.03721488
0.0058760336 -0.033297524 -0.058760334 -0.06267769 0.064636365 -0.07442976 0.058760334 -0.07638843
0.07834711 0.10968596 -0.10968596 -0.039173555 0.0176281 -0.11164463 -0.013710745 0.07638843
0.015669422 -0.04504959 -0.03721488 0.033297524 0.0019586778 -0.08226447 0.1057686 0.11360331
0.007834711 -0.107727274 -0.011752067 -0.0058760336 0.025462812 -0.14494215 -0.10380992 -0.039173555
0.033297524 0.009793389 0.031338844 -0.12927273 -0.09793389 0.025462812 0.09597521 -0.084223144
0.0 -0.14885952 0.023504134 -0.007834711 -0.1057686 -0.0019586778 0.0039173556 -0.009793389
0.021545455 -0.048966944 -0.03721488 0.08030579 0.041132234 -0.0528843 0.06267769 0.07638843
-0.08226447 0.0 0.015669422 0.058760334 0.013710745 -0.064636365 0.04309091 0.084223144
-0.039173555 -0.023504134 -0.04504959 -0.09401654 0.04309091 0.02742149 -0.10380992 0.04504959
0.021545455 0.0528843 0.0352562 -0.04700827 0.1233967 -0.05484298 0.064636365 -0.0019586778
-0.04309091 0.0058760336 0.16452894 -0.033297524 0.07638843 0.0039173556 -0.056801654 0.09793389
0.09793389 -0.0176281 -0.007834711 0.058760334 -0.056801654 -0.11360331 -0.06267769 -0.025462812
0.0058760336 -0.015669422 0.019586777 -0.04309091 0.04309091 0.056801654 0.06855372 -0.05484298
0.013710745 0.04309091 -0.09009918 -0.072471075 -0.0058760336 0.07834711 -0.0019586778 0.07442976
-0.064636365 0.0705124 -0.007834711 -0.025462812 0.10185125 0.050925624 0.013710745 0.07638843
0.11556199 0.009793389 0.084223144 -0.10968596 0.04309091 -0.14690083 -0.0176281 0.015669422
-0.06267769 0.05484298 -0.03721488 -0.0019586778 0.11164463 -0.084223144 0.0019586778 0.0058760336
-0.0039173556 -0.033297524 -0.029380167 -0.13514876 -0.06071901 -0.07638843 -0.029380167 -0.11360331
0.084223144 0.04504959 -0.10968596 0.02742149 -0.14494215 0.0528843 -0.04504959 -0.06071901

MynaNet_DSCNN_SE_Res_Att_Wide/enhanced_mhsa/value/add/ReadVariableOp i1 [4, 48] scale=0.00082102604 zero_point=-12
00000000: 0d16 06fb d101 b3ff 0c8f fe33 d8ff f6b6
00000010: 03af bffc d99d f404 202e 2cf7 e494 3ad9
00000020: 3022 def8 1bfc 1ecf 1db2 552f b5f0 4dee
00000030: f4cf b31c 398a c7fd efde 0b42 34ef 09e9
00000040: 4fbf 2122 cb9e fad6 bbd8 d1fd b000 e1d2
00000050: 09db d7e0 d53f 35e4 d9fc 89fe d216 3fe5
00000060: 3c63 41c3 f68f f9b8 c221 28c5 698f 3140
00000070: 1a0d db31 df3b a8e7 f443 dffc 15e3 e7d6
00000080: f724 34f9 80ce a9d3 14c0 ecd0 990f a6d4
00000090: f9b4 56b2 09ea fa3b ee10 e920 0dba 4dc0
000000a0: dedf 7fc4 defa 1411 43f2 1d97 d503 c752
000000b0: d7de c9fe ecc9 caf6 251c f4fe 2cfc c74f
0.020525651 0.027914885 0.014778469 0.0057471823 -0.028735911 0.010673339 -0.05336669 0.009031286
0.019704625 -0.08292363 0.00821026 0.051724643 -0.02298873 0.009031286 0.0016420521 -0.050903615
0.012315391 -0.056650795 -0.04351438 0.0065682083 -0.022167703 -0.07142927 0.0 0.013136417
0.036125146 0.04761951 0.04597746 0.0024630781 -0.013136417 -0.0788185 0.057471823 -0.022167703
0.049261563 0.037767198 -0.018062573 0.0032841042 0.032020018 0.0065682083 0.034483094 -0.030377964
0.033662066 -0.05418772 0.079639524 0.04844054 -0.051724643 -0.0032841042 0.073071316 -0.0049261563
0.0 -0.030377964 -0.05336669 0.03284104 0.056650795 -0.08702876 -0.03694617 0.0073892344
-0.00410513 -0.018062573 0.018883599 0.064040035 0.052545667 -0.00410513 0.017241547 -0.009031286
0.07471337 -0.04351438 0.03694617 0.037767198 -0.033662066 -0.07060824 0.0049261563 -0.024630781
-0.046798483 -0.02298873 -0.028735911 0.0073892344 -0.05582977 0.0098523125 -0.015599495 -0.027914885
0.017241547 -0.020525651 -0.023809755 -0.01642052 -0.025451807 0.061576955 0.05336669 -0.013136417
-0.022167703 0.0065682083 -0.08784979 0.00821026 -0.027914885 0.027914885 0.061576955 -0.012315391
0.059113875 0.09113389 0.063219 -0.040230274 0.0016420521 -0.08292363 0.00410513 -0.049261563
-0.041051302 0.03694617 0.042693354 -0.038588226 0.096060045 -0.08292363 0.050082587 0.06239798
0.03119899 0.020525651 -0.020525651 0.050082587 -0.017241547 0.05829285 -0.06239798 -0.010673339
0.0 0.06486106 -0.017241547 0.0065682083 0.02709386 -0.013957443 -0.010673339 -0.024630781
0.0024630781 0.03940925 0.052545667 0.00410513 -0.09523902 -0.03119899 -0.061576955 -0.02709386
0.026272833 -0.042693354 -0.0065682083 -0.029556938 -0.07471337 0.022167703 -0.064040035 -0.026272833
0.00410513 -0.052545667 0.08046055 -0.05418772 0.017241547 -0.00821026 0.0049261563 0.05829285
-0.0049261563 0.02298873 -0.009031286 0.036125146 0.020525651 -0.04761951 0.073071316 -0.042693354
-0.018062573 -0.017241547 0.11412262 -0.03940925 -0.018062573 0.0049261563 0.026272833 0.023809755
0.06486106 -0.0016420521 0.033662066 -0.07635542 -0.025451807 0.012315391 -0.03694617 0.07717645
-0.023809755 -0.018062573 -0.03530412 0.00821026 -0.0065682083 -0.03530412 -0.034483094 0.0016420521
0.040230274 0.03284104 0.0 0.00821026 0.04597746 0.0065682083 -0.03694617 0.07471337

MynaNet_DSCNN_SE_Res_Att_Wide/enhanced_mhsa/value/einsum/Einsum i1 [192, 96] scale=0.0018235587 zero_point=0
00000000: 1b15 2e1c ffe0 f4eb 0beb 0f0e 14f6 0008
00000010: 17e4 e4ff eb20 f3f4 fd04 1dfe e4ff faff
00000020: ef18 d7f0 fff4 eff7 f8ff 1300 eb21 300e
00000030: f7fa ff19 0703 1af4 ebfe 26f8 3200 f2f1
00000040: fb0b 13fe 03f2 ede8 d6f2 eaeb f9fb e5ff
00000050: 070f fd02 e61a d814 09fd 0ef7 2453 0fee
00000060: f2ff 0d2d f5df f7fa 0fec d604 f317 dbde
00000070: f5d0 0005 f9f7 e9f7 ffde f000 f7e9 0d0b
00000080: 0730 09f4 01f2 ee1a f1ea 02f2 0525 332a
00000090: f908 030d 2400 1101 d9f7 eeff 25ee f9f4
000000a0: d416 1004 1202 f1f2 fef4 d90f f800 e513
000000b0: 00f0 f5fc 0ee4 1106 2a05 eef7 17cd fc22
000000c0: faed 132d 1be9 f121 f0d8 f5fe e8ed d2fb
000000d0: 14c2 f10a ff15 101e 030e 010c f104 0dfd
000000e0: fe3c 1b14 f9fd ecfb 04f4 08ec 1bdf 1b06
000000f0: fef7 f0ec e90a 0009 f005 f718 2207 2c06
0.049236085 0.038294733 0.0838837 0.051059645 -0.0018235587 -0.05835388 -0.021882705 -0.038294733
0.020059146 -0.038294733 0.02735338 0.025529822 0.036471173 -0.018235587 0.0 0.01458847
0.04194185 -0.051059645 -0.051059645 -0.0018235587 -0.038294733 0.05835388 -0.023706263 -0.021882705
-0.0054706763 0.007294235 0.052883204 -0.0036471174 -0.051059645 -0.0018235587 -0.010941353 -0.0018235587
-0.031000499 0.04376541 -0.074765906 -0.02917694 -0.0018235587 -0.021882705 -0.031000499 -0.016412029
-0.01458847 -0.0018235587 0.034647614 0.0 -0.038294733 0.060177438 0.08753082 0.025529822
-0.016412029 -0.010941353 -0.0018235587 0.045588966 0.012764911 0.0054706763 0.047412526 -0.021882705
-0.038294733 -0.0036471174 0.06929523 -0.01458847 0.09117793 0.0 -0.025529822 -0.02735338
-0.009117793 0.020059146 0.034647614 -0.0036471174 0.0054706763 -0.025529822 -0.034647614 -0.04376541
-0.076589465 -0.025529822 -0.040118292 -0.038294733 -0.012764911 -0.009117793 -0.049236085 -0.0018235587
0.012764911 0.02735338 -0.0054706763 0.0036471174 -0.047412526 0.047412526 -0.07294235 0.036471173
0.016412029 -0.0054706763 0.025529822 -0.016412029 0.065648116 0.15135537 0.02735338 -0.032824058
-0.025529822 -0.0018235587 0.023706263 0.08206014 -0.020059146 -0.060177438 -0.016412029 -0.010941353
0.02735338 -0.036471173 -0.076589465 0.007294235 -0.023706263 0.04194185 -0.067471676 -0.062000997
-0.020059146 -0.08753082 0.0 0.009117793 -0.012764911 -0.016412029 -0.04194185 -0.016412029
-0.0018235587 -0.062000997 -0.02917694 0.0 -0.016412029 -0.04194185 0.023706263 0.020059146
0.012764911 0.08753082 0.016412029 -0.021882705 0.0018235587 -0.025529822 -0.032824058 0.047412526
-0.02735338 -0.040118292 0.0036471174 -0.025529822 0.009117793 0.067471676 0.09300149 0.076589465
-0.012764911 0.01458847 0.0054706763 0.023706263 0.065648116 0.0 0.031000499 0.0018235587
-0.07111879 -0.016412029 -0.032824058 -0.0018235587 0.067471676 -0.032824058 -0.012764911 -0.021882705
-0.080236584 0.040118292 0.02917694 0.007294235 0.032824058 0.0036471174 -0.02735338 -0.025529822
-0.0036471174 -0.021882705 -0.07111879 0.02735338 -0.01458847 0.0 -0.049236085 0.034647614
0.0 -0.02917694 -0.020059146 -0.007294235 0.025529822 -0.051059645 0.031000499 0.010941353
0.076589465 0.009117793 -0.032824058 -0.016412029 0.04194185 -0.09300149 -0.007294235 0.062000997
-0.010941353 -0.034647614 0.034647614 0.08206014 0.049236085 -0.04194185 -0.02735338 0.060177438
-0.02917694 -0.07294235 -0.020059146 -0.0036471174 -0.04376541 -0.034647614 -0.0838837 -0.009117793
0.036471173 -0.11306064 -0.02735338 0.018235587 -0.0018235587 0.038294733 0.02917694 0.05470676
0.0054706763 0.025529822 0.0018235587 0.021882705 -0.02735338 0.007294235 0.023706263 -0.0054706763
-0.0036471174 0.10941352 0.049236085 0.036471173 -0.012764911 -0.0054706763 -0.036471173 -0.009117793
0.007294235 -0.021882705 0.01458847 -0.036471173 0.049236085 -0.060177438 0.049236085 0.010941353
-0.0036471174 -0.016412029 -0.02917694 -0.036471173 -0.04194185 0.018235587 0.0 0.016412029
-0.02917694 0.009117793 -0.016412029 0.04376541 0.062000997 0.012764911 0.080236584 0.010941353

MynaNet_DSCNN_SE_Res_Att_Wide/enhanced_mhsa/query/add/ReadVariableOp i1 [4, 48] scale=0.000732082 zero_point=-12
00000000: 800b a136 04c0 2417 cdd7 00af d2fe df23
00000010: b6c1 9dd1 5bcf 1cf4 c34d cb29 1d18 d0da
00000020: e2dc 28c1 2a23 d00b eab3 36d2 38df 0b25
00000030: 3c44 04fe a6db c72f 381c d9a7 fbd0 0e04
00000040: c810 43df 04d6 aef6 0fec 41a1 12d1 f2ef
00000050: 0ae7 0ae3 1c20 fedf e1c8 bd0f b8e6 0cc0
00000060: 1b3f 0be8 e7f5 019d 0cc3 f2d7 14b3 e109
00000070: 12d5 b3d9 f02a d321 aaa6 ed37 6ad8 c67f
00000080: dd37 f498 1e94 e4d8 eadd b9b0 4647 349a
00000090: e9d8 e2ce fea6 04f3 f2c2 feac f0e3 1bfb
000000a0: 03b1 3aff 04e4 b8cb d3d3 f6b2 b5c0 1912
000000b0: f9fb ece8 ddd8 0ddd eea4 d9d9 df33 1443
-0.08492151 0.016837886 -0.060762808 0.048317414 0.011713312 -0.038068265 0.035139937 0.02562287
-0.028551199 -0.021230377 0.008784984 -0.05051366 -0.024890788 0.00732082 -0.015373722 0.034407854
-0.045389082 -0.03733618 -0.06369113 -0.02562287 0.07540444 -0.027087035 0.02928328 0.0
-0.03587202 0.0651553 -0.030015362 0.038800348 0.030015362 0.026354952 -0.026354952 -0.019034132
-0.013177476 -0.017569968 0.038068265 -0.03733618 0.039532427 0.034407854 -0.026354952 0.016837886
-0.00732082 -0.04758533 0.048317414 -0.024890788 0.049781576 -0.015373722 0.016837886 0.03587202
0.052709904 0.05856656 0.011713312 0.00732082 -0.057102397 -0.01830205 -0.03294369 0.043192837
0.049781576 0.02928328 -0.019766213 -0.056370314 0.005124574 -0.026354952 0.019034132 0.011713312
-0.03221161 0.020498296 0.057834476 -0.015373722 0.011713312 -0.02196246 -0.05124574 0.001464164
0.019766213 -0.005856656 0.056370314 -0.060762808 0.02196246 -0.02562287 -0.001464164 -0.00366041
0.016105805 -0.009517066 0.016105805 -0.012445394 0.02928328 0.03221161 0.00732082 -0.015373722
-0.013909558 -0.03221161 -0.04026451 0.019766213 -0.04392492 -0.010249148 0.017569968 -0.038068265
0.028551199 0.05490615 0.016837886 -0.008784984 -0.009517066 0.000732082 0.009517066 -0.06369113
0.017569968 -0.03587202 -0.001464164 -0.021230377 0.023426624 -0.04758533 -0.013909558 0.015373722
0.02196246 -0.022694541 -0.04758533 -0.019766213 -0.002928328 0.039532427 -0.024158707 0.03294369
-0.05417407 -0.057102397 -0.005124574 0.049049493 0.086385675 -0.020498296 -0.03367577 0.1017594
-0.016837886 0.049049493 0.0 -0.06735154 0.030747443 -0.070279874 -0.011713312 -0.020498296
-0.00732082 -0.016837886 -0.043192837 -0.049781576 0.060030725 0.060762808 0.046853248 -0.06588738
-0.008052902 -0.020498296 -0.013177476 -0.027819116 0.00732082 -0.057102397 0.011713312 -0.000732082
-0.001464164 -0.0366041 0.00732082 -0.052709904 -0.002928328 -0.012445394 0.028551199 0.005124574
0.01098123 -0.049049493 0.05124574 0.008052902 0.011713312 -0.011713312 -0.04392492 -0.030015362
-0.024158707 -0.024158707 0.001464164 -0.048317414 -0.046121165 -0.038068265 0.027087035 0.02196246
0.00366041 0.005124574 -0.005856656 -0.008784984 -0.016837886 -0.020498296 0.01830205 -0.016837886
-0.004392492 -0.05856656 -0.019766213 -0.019766213 -0.015373722 0.046121165 0.023426624 0.057834476

MynaNet_DSCNN_SE_Res_Att_Wide/enhanced_mhsa/query/einsum/Einsum i1 [192, 96] scale=0.0016764405 zero_point=0
00000000: 0c06 f5c9 17de 0402 fc02 f1dd c701 03c6
00000010: 0cdc 0e0c 10d1 0efc d9d1 e2f8 0e19 e9fc
00000020: dcf0 ead0 f7e8 11f6 f5d5 ffe4 f0ea e8ca
00000030: f503 eae0 f818 daf8 ffd4 f9d5 cb01 eb03
00000040: e1e0 e813 ece5 06e8 c8df e613 f1f1 e0db
00000050: f2ff f912 10e5 cde2 fe00 fcc1 d9fc f23b
00000060: 100a 1708 f905 0617 eff6 d903 010e f912
00000070: e601 0618 ef0a ffbe dcfe 1bf9 fbf0 fc04
00000080: 0df1 1bf7 e7ff 0711 f9ea f510 0c08 f903
00000090: 01e7 fdf9 1af6 1815 f61a ff0a 0a03 c4fb
000000a0: 05fc f409 f6e2 131a dcee e205 0508 1afe
000000b0: f307 00f7 101c fc06 0b05 f3fc eee7 0bd6
000000c0: 04fe edd2 fee4 fb24 f204 efdb d9fb 07eb
000000d0: fe0c 1913 f5c5 20f1 e3df f201 171e 06f8
000000e0: f1da 09f1 d2e5 0a00 e5ff faf5 eaf4 ebf2
000000f0: f313 f409 09fc 00e4 0800 f2e3 f4eb ff0e
0.020117287 0.010058643 -0.018440844 -0.09220423 0.03855813 -0.056998976 0.006705762 0.003352881
-0.006705762 0.003352881 -0.025146607 -0.058675416 -0.09555711 0.0016764405 0.0050293216 -0.09723355
0.020117287 -0.060351856 0.023470167 0.020117287 0.026823048 -0.0787927 0.023470167 -0.006705762
-0.06538118 -0.0787927 -0.050293215 -0.013411524 0.023470167 0.041911013 -0.03855813 -0.006705762
-0.060351856 -0.026823048 -0.03688169 -0.08046915 -0.015087964 -0.040234573 0.028499488 -0.016764404
-0.018440844 -0.07208694 -0.0016764405 -0.046940334 -0.026823048 -0.03688169 -0.040234573 -0.09052779
-0.018440844 0.0050293216 -0.03688169 -0.053646095 -0.013411524 0.040234573 -0.06370474 -0.013411524
-0.0016764405 -0.07376338 -0.011735084 -0.07208694 -0.08885135 0.0016764405 -0.03520525 0.0050293216
-0.051969655 -0.053646095 -0.040234573 0.03185237 -0.03352881 -0.045263894 0.010058643 -0.040234573
-0.09388067 -0.055322535 -0.043587454 0.03185237 -0.025146607 -0.025146607 -0.053646095 -0.062028296
-0.023470167 -0.0016764405 -0.011735084 0.030175928 0.026823048 -0.045263894 -0.08549847 -0.050293215
-0.003352881 0.0 -0.006705762 -0.10561575 -0.06538118 -0.006705762 -0.023470167 0.09890999
0.026823048 0.016764404 0.03855813 0.013411524 -0.011735084 0.008382202 0.010058643 0.03855813
-0.028499488 -0.016764404 -0.06538118 0.0050293216 0.0016764405 0.023470167 -0.011735084 0.030175928
-0.043587454 0.0016764405 0.010058643 0.040234573 -0.028499488 0.016764404 -0.0016764405 -0.11064507
-0.060351856 -0.003352881 0.045263894 -0.011735084 -0.008382202 -0.026823048 -0.006705762 0.006705762
0.021793727 -0.025146607 0.045263894 -0.015087964 -0.041911013 -0.0016764405 0.011735084 0.028499488
-0.011735084 -0.03688169 -0.018440844 0.026823048 0.020117287 0.013411524 -0.011735084 0.0050293216
0.0016764405 -0.041911013 -0.0050293216 -0.011735084 0.043587454 -0.016764404 0.040234573 0.03520525
-0.016764404 0.043587454 -0.0016764405 0.016764404 0.016764404 0.0050293216 -0.10058643 -0.008382202
0.008382202 -0.006705762 -0.020117287 0.015087964 -0.016764404 -0.050293215 0.03185237 0.043587454
-0.060351856 -0.030175928 -0.050293215 0.008382202 0.008382202 0.013411524 0.043587454 -0.003352881
-0.021793727 0.011735084 0.0 -0.015087964 0.026823048 0.046940334 -0.006705762 0.010058643
0.018440844 0.008382202 -0.021793727 -0.006705762 -0.030175928 -0.041911013 0.018440844 -0.0704105
0.006705762 -0.003352881 -0.03185237 -0.07711626 -0.003352881 -0.046940334 -0.008382202 0.060351856
-0.023470167 0.006705762 -0.028499488 -0.062028296 -0.06538118 -0.008382202 0.011735084 -0.03520525
-0.003352881 0.020117287 0.041911013 0.03185237 -0.018440844 -0.09890999 0.053646095 -0.025146607
-0.048616774 -0.055322535 -0.023470167 0.0016764405 0.03855813 0.050293215 0.010058643 -0.013411524
-0.025146607 -0.06370474 0.015087964 -0.025146607 -0.07711626 -0.045263894 0.016764404 0.0
-0.045263894 -0.0016764405 -0.010058643 -0.018440844 -0.03688169 -0.020117287 -0.03520525 -0.023470167
-0.021793727 0.03185237 -0.020117287 0.015087964 0.015087964 -0.006705762 0.0 -0.046940334
0.013411524 0.0 -0.023470167 -0.048616774 -0.020117287 -0.03520525 -0.0016764405 0.023470167

MynaNet_DSCNN_SE_Res_Att_Wide/enhanced_mhsa/key/add/ReadVariableOp i1 [4, 48] scale=2.5405766e-06 zero_point=25
00000000: 091c 1918 0131 1507 1aff 1421 0c1d 1508
00000010: 244b 102f df22 181d 3a2d 160a 1910 1a0f
00000020: 0f1f 143d fe07 1e1a 1a0b 1b1a 2121 1c2b
00000030: 2347 211f 0b1b 031d 3c05 03fd 252a 2f1c
00000040: 2223 2213 1526 e11d 1d1a f2ed fe18 2216
00000050: 2520 1e0f 2b20 120e 1511 2617 1c14 1b0f
00000060: 1c07 1013 613f 0cec 22f7 03db 1d2c 181d
00000070: 081d f911 e836 161e 80f5 0e1a 780d 433d
00000080: 2d26 0403 f87f 07ee 2216 13f4 0551 2d97
00000090: 0b17 1624 1713 0f0e 0d25 1b0a 2027 2720
000000a0: 1818 3a02 1d16 1217 113f 0510 1626 201c
000000b0: 2319 1021 1513 1608 190c 111c 101f 361d
-4.0649225e-05 7.6217298e-06 0.0 -2.5405766e-06 -6.0973838e-05 6.0973838e-05 -1.0162306e-05 -4.573038e-05
2.5405766e-06 -6.605499e-05 -1.2702883e-05 2.0324613e-05 -3.3027496e-05 1.0162306e-05 -1.0162306e-05 -4.31898e-05
2.7946342e-05 0.00012702883 -2.286519e-05 5.5892684e-05 -0.00014735344 2.286519e-05 -2.5405766e-06 1.0162306e-05
8.3839026e-05 5.0811534e-05 -7.6217298e-06 -3.810865e-05 0.0 -2.286519e-05 2.5405766e-06 -2.5405767e-05
-2.5405767e-05 1.52434595e-05 -1.2702883e-05 9.146076e-05 -6.859557e-05 -4.573038e-05 1.2702883e-05 2.5405766e-06
2.5405766e-06 -3.556807e-05 5.081153e-06 2.5405766e-06 2.0324613e-05 2.0324613e-05 7.6217298e-06 4.573038e-05
2.5405767e-05 0.000116866526 2.0324613e-05 1.52434595e-05 -3.556807e-05 5.081153e-06 -5.5892684e-05 1.0162306e-05
8.8920184e-05 -5.0811534e-05 -5.5892684e-05 -7.113614e-05 3.0486919e-05 4.31898e-05 5.5892684e-05 7.6217298e-06
2.286519e-05 2.5405767e-05 2.286519e-05 -1.52434595e-05 -1.0162306e-05 3.3027496e-05 -0.00014227229 1.0162306e-05
1.0162306e-05 2.5405766e-06 -9.9082485e-05 -0.00011178537 -6.859557e-05 -2.5405766e-06 2.286519e-05 -7.6217298e-06
3.0486919e-05 1.7784036e-05 1.2702883e-05 -2.5405767e-05 4.573038e-05 1.7784036e-05 -1.7784036e-05 -2.7946342e-05
-1.0162306e-05 -2.0324613e-05 3.3027496e-05 -5.081153e-06 7.6217298e-06 -1.2702883e-05 5.081153e-06 -2.5405767e-05
7.6217298e-06 -4.573038e-05 -2.286519e-05 -1.52434595e-05 0.00018292152 9.654191e-05 -3.3027496e-05 -0.00011432594
2.286519e-05 -8.63796e-05 -5.5892684e-05 -0.00015751575 1.0162306e-05 4.8270955e-05 -2.5405766e-06 1.0162306e-05
-4.31898e-05 1.0162306e-05 -8.129845e-05 -2.0324613e-05 -0.00012448826 7.367672e-05 -7.6217298e-06 1.2702883e-05
-0.00038870823 -9.146076e-05 -2.7946342e-05 2.5405766e-06 0.00024135478 -3.0486919e-05 0.00010670422 9.146076e-05
5.0811534e-05 3.3027496e-05 -5.335211e-05 -5.5892684e-05 -8.3839026e-05 0.00025913882 -4.573038e-05 -0.00010924479
2.286519e-05 -7.6217298e-06 -1.52434595e-05 -9.4001334e-05 -5.0811534e-05 0.00014227229 5.0811534e-05 -0.00033027495
-3.556807e-05 -5.081153e-06 -7.6217298e-06 2.7946342e-05 -5.081153e-06 -1.52434595e-05 -2.5405767e-05 -2.7946342e-05
-3.0486919e-05 3.0486919e-05 5.081153e-06 -3.810865e-05 1.7784036e-05 3.556807e-05 3.556807e-05 1.7784036e-05
-2.5405766e-06 -2.5405766e-06 8.3839026e-05 -5.8433263e-05 1.0162306e-05 -7.6217298e-06 -1.7784036e-05 -5.081153e-06
-2.0324613e-05 9.654191e-05 -5.0811534e-05 -2.286519e-05 -7.6217298e-06 3.3027496e-05 1.7784036e-05 7.6217298e-06
2.5405767e-05 0.0 -2.286519e-05 2.0324613e-05 -1.0162306e-05 -1.52434595e-05 -7.6217298e-06 -4.31898e-05
0.0 -3.3027496e-05 -2.0324613e-05 7.6217298e-06 -2.286519e-05 1.52434595e-05 7.367672e-05 1.0162306e-05

MynaNet_DSCNN_SE_Res_Att_Wide/enhanced_mhsa/key/einsum/Einsum i1 [192, 96] scale=0.0027545455 zero_point=0
00000000: 1424 f6f8 1a06 1ef3 00f7 e8eb 1e15 03ff
00000010: 1b0a e71a fdea ddf4 fe0a ebf3 eb0f 0205
00000020: 1a19 2c08 1211 0113 0701 eaf0 1026 ea05
00000030: 08e9 0f21 0bfc 0404 06ec f626 fa04 c618
00000040: f602 34e7 14fb 0013 c5e3 010b ff2c 2afe
00000050: 09fe f9fe f01c eaeb 1203 04f9 0b02 f705
00000060: 09fb 0309 f2f8 051d 030a 0f0e f70c 0107
00000070: 030b 1b13 f90c fe08 02f4 140c fa03 0005
00000080: 02f5 fb03 0804 fe03 f807 ff0d 0a1b fd09
00000090: 0dfa 01fe e515 03ff 120f fef0 0703 eded
000000a0: fa09 0bfc 091a f5fc 0006 050b 0308 fd00
000000b0: f5f4 06f9 04ea 17f9 fc09 0bff f02c 0dff
000000c0: 0221 07ed 1808 1001 0001 f5eb 21fe fef9
000000d0: 1cfe e300 f6eb e406 fd04 f600 ee0e fb06
000000e0: 0b19 2f09 1211 0808 07f8 f3fb 0d1e 02fe
000000f0: 13e9 1517 fbf3 f6fd ffe9 0413 fc08 d41b
0.05509091 0.09916364 -0.027545456 -0.022036364 0.071618184 0.016527273 0.082636364 -0.035809092
0.0 -0.02479091 -0.06610909 -0.057845455 0.082636364 0.057845455 0.008263636 -0.0027545455
0.07437273 0.027545456 -0.06886364 0.071618184 -0.008263636 -0.0606 -0.0964091 -0.033054546
-0.005509091 0.027545456 -0.057845455 -0.035809092 -0.057845455 0.041318182 0.005509091 0.013772728
0.071618184 0.06886364 0.1212 0.022036364 0.04958182 0.046827275 0.0027545455 0.052336365
0.01928182 0.0027545455 -0.0606 -0.04407273 0.04407273 0.10467273 -0.0606 0.013772728
0.022036364 -0.063354544 0.041318182 0.090900004 0.0303 -0.011018182 0.011018182 0.011018182
0.016527273 -0.05509091 -0.027545456 0.10467273 -0.016527273 0.011018182 -0.15976363 0.06610909
-0.027545456 0.005509091 0.14323637 -0.06886364 0.05509091 -0.013772728 0.0 0.052336365
-0.16251819 -0.07988182 0.0027545455 0.0303 -0.0027545455 0.1212 0.11569091 -0.005509091
0.02479091 -0.005509091 -0.01928182 -0.005509091 -0.04407273 0.07712728 -0.0606 -0.057845455
0.04958182 0.008263636 0.011018182 -0.01928182 0.0303 0.005509091 -0.02479091 0.013772728
0.02479091 -0.013772728 0.008263636 0.02479091 -0.03856364 -0.022036364 0.013772728 0.07988182
0.008263636 0.027545456 0.041318182 0.03856364 -0.02479091 0.033054546 0.0027545455 0.01928182
0.008263636 0.0303 0.07437273 0.052336365 -0.01928182 0.033054546 -0.005509091 0.022036364
0.005509091 -0.033054546 0.05509091 0.033054546 -0.016527273 0.008263636 0.0 0.013772728
0.005509091 -0.0303 -0.013772728 0.008263636 0.022036364 0.011018182 -0.005509091 0.008263636
-0.022036364 0.01928182 -0.0027545455 0.035809092 0.027545456 0.07437273 -0.008263636 0.02479091
0.035809092 -0.016527273 0.0027545455 -0.005509091 -0.07437273 0.057845455 0.008263636 -0.0027545455
0.04958182 0.041318182 -0.005509091 -0.04407273 0.01928182 0.008263636 -0.052336365 -0.052336365
-0.016527273 0.02479091 0.0303 -0.011018182 0.02479091 0.071618184 -0.0303 -0.011018182
0.0 0.016527273 0.013772728 0.0303 0.008263636 0.022036364 -0.008263636 0.0
-0.0303 -0.033054546 0.016527273 -0.01928182 0.011018182 -0.0606 0.063354544 -0.01928182
-0.011018182 0.02479091 0.0303 -0.0027545455 -0.04407273 0.1212 0.035809092 -0.0027545455
0.005509091 0.090900004 0.01928182 -0.052336365 0.06610909 0.022036364 0.04407273 0.0027545455
0.0 0.0027545455 -0.0303 -0.057845455 0.090900004 -0.005509091 -0.005509091 -0.01928182
0.07712728 -0.005509091 -0.07988182 0.0 -0.027545456 -0.057845455 -0.07712728 0.016527273
-0.008263636 0.011018182 -0.027545456 0.0 -0.04958182 0.03856364 -0.013772728 0.016527273
0.0303 0.06886364 0.12946364 0.02479091 0.04958182 0.046827275 0.022036364 0.022036364
0.01928182 -0.022036364 -0.035809092 -0.013772728 0.035809092 0.082636364 0.005509091 -0.005509091
0.052336365 -0.063354544 0.057845455 0.063354544 -0.013772728 -0.035809092 -0.027545456 -0.008263636
-0.0027545455 -0.063354544 0.011018182 0.052336365 -0.011018182 0.022036364 -0.1212 0.07437273

MynaNet_DSCNN_SE_Res_Att_Wide/attention_proj/BiasAdd/ReadVariableOp i1 [96] scale=0.0004346467 zero_point=-7
00000000: ffd5 fffb bfdf ddf0 cd10 f77f 113a ed01
00000010: dffc d5e7 e422 0f13 7e0d 0ed3 fbd0 afdb
00000020: f388 e4e2 80d5 fdd5 e2e1 fbe2 c81f f204
00000030: a7ff e7da fbf7 e3d2 073f 1de7 1ada 38d3
00000040: f7d4 29e2 a62b e319 4ecc 1fea ccd6 f3c9
00000050: dcd1 d3e1 9a31 e14b d0e2 e5fc 7805 ddcc
0.0026078802 -0.015647281 0.0026078802 0.0008692934 -0.025209509 -0.011300814 -0.012170108 -0.0039118202
-0.019124456 0.009996874 -0.0008692934 0.05824266 0.010431521 0.028252035 -0.0052157603 0.0034771736
-0.011300814 0.0013039401 -0.015647281 -0.0078236405 -0.009127581 0.017820515 0.009562228 0.011300814
0.05780801 0.008692934 0.009127581 -0.016516576 0.0008692934 -0.017820515 -0.032163855 -0.013039401
-0.0026078802 -0.049115077 -0.009127581 -0.009996874 -0.05259225 -0.015647281 0.0017385868 -0.015647281
-0.009996874 -0.010431521 0.0008692934 -0.009996874 -0.021297688 0.016516576 -0.003042527 0.004781114
-0.03564103 0.0026078802 -0.0078236405 -0.013474048 0.0008692934 -0.0008692934 -0.009562228 -0.016951222
0.006085054 0.03042527 0.015647281 -0.0078236405 0.014343341 -0.013474048 0.027382743 -0.016516576
-0.0008692934 -0.016081927 0.020863041 -0.009996874 -0.036075678 0.021732336 -0.009562228 0.0139086945
0.03694497 -0.019559102 0.016516576 -0.0065197004 -0.019559102 -0.015212635 -0.0026078802 -0.020863041
-0.012604754 -0.017385868 -0.016516576 -0.010431521 -0.041291438 0.024340216 -0.010431521 0.03564103
-0.017820515 -0.009996874 -0.008692934 0.0013039401 0.05520013 0.0052157603 -0.012170108 -0.019559102

MynaNet_DSCNN_SE_Res_Att_Wide/attention_proj/Tensordot/MatMul1 i1 [96, 384] scale=0.0022451475 zero_point=0
00000000: d304 1ad3 f829 faca fbe2 0c27 a9ec 41d0
00000010: 19cf e2fc 2b27 f4ff b7be cdf6 0c33 d70e
00000020: cbcd f60f 2ada 04b4 fee4 f60d ea1d 2396
00000030: 26de c621 3719 e0cb 1ffb 3d16 cc22 f424
00000040: df3b f030 dffc 12d6 0ab4 042a 1d3a d8eb
00000050: 0d38 d02f 00fe e806 16f8 22bc e31b 0745
00000060: d3f6 07d8 1b23 2033 e41c 1238 13cd ddc2
00000070: 06f6 f23c 3134 1bd4 c7c9 0f2e e7da 4502
00000080: c322 19eb edfb 01e9 d20e 0628 1b1b 221f
00000090: 310f f30e 010b 0fec 1706 28f4 f2aa 08ef
000000a0: 0121 b7eb 0cdf e127 fdf0 f808 d7d9 0dcd
000000b0: 06d8 24bd 1e26 220c ddd7 ef25 0965 fbf0
000000c0: eb30 2608 dcf6 1bee 0be0 2c3b f800 fa1d
000000d0: c033 e71c ee2c ec1a 2009 21f6 ec14 e622
000000e0: 2f07 00f2 a80f b124 08fd d492 43fe ec30
000000f0: 06e9 1edb 0d13 2afb 1fe9 d9d0 1a47 f708
-0.10103164 0.00898059 0.058373835 -0.10103164 -0.01796118 0.092051044 -0.013470884 -0.12123796
-0.011225738 -0.067354426 0.026941769 0.08756075 -0.19532783 -0.04490295 0.14593458 -0.107767075
0.05612869 -0.110012226 -0.067354426 -0.00898059 0.096541345 0.08756075 -0.026941769 -0.0022451475
-0.16389577 -0.14817974 -0.11450252 -0.022451475 0.026941769 0.11450252 -0.092051044 0.031432066
-0.11899281 -0.11450252 -0.022451475 0.033677213 0.094296195 -0.08531561 0.00898059 -0.17063121
-0.004490295 -0.06286413 -0.022451475 0.029186917 -0.049393244 0.065109275 0.07858016 -0.23798563
0.08531561 -0.07633501 -0.13021855 0.07408987 0.123483114 0.05612869 -0.07184472 -0.11899281
0.06959957 -0.011225738 0.136954 0.049393244 -0.11674767 0.07633501 -0.026941769 0.08082531
-0.07408987 0.13246371 -0.03592236 0.107767075 -0.07408987 -0.00898059 0.040412653 -0.094296195
0.022451475 -0.17063121 0.00898059 0.094296195 0.065109275 0.13021855 -0.0898059 -0.047148097
0.029186917 0.12572826 -0.107767075 0.10552193 0.0 -0.004490295 -0.053883538 0.013470884
0.049393244 -0.01796118 0.07633501 -0.15267003 -0.065109275 0.06061898 0.015716033 0.15491517
-0.10103164 -0.022451475 0.015716033 -0.0898059 0.06061898 0.07858016 0.07184472 0.11450252
-0.06286413 0.06286413 0.040412653 0.12572826 0.042657804 -0.11450252 -0.07858016 -0.13919914
0.013470884 -0.022451475 -0.031432066 0.13470885 0.110012226 0.11674767 0.06061898 -0.09878649
-0.12797341 -0.123483114 0.033677213 0.10327678 -0.05612869 -0.08531561 0.15491517 0.004490295
-0.136954 0.07633501 0.05612869 -0.047148097 -0.042657804 -0.011225738 0.0022451475 -0.05163839
-0.10327678 0.031432066 0.013470884 0.0898059 0.06061898 0.06061898 0.07633501 0.06959957
0.110012226 0.033677213 -0.029186917 0.031432066 0.0022451475 0.024696622 0.033677213 -0.04490295
0.05163839 0.013470884 0.0898059 -0.026941769 -0.031432066 -0.19308269 0.01796118 -0.038167506
0.0022451475 0.07408987 -0.16389577 -0.047148097 0.026941769 -0.07408987 -0.06959957 0.08756075
-0.006735442 -0.03592236 -0.01796118 0.01796118 -0.092051044 -0.08756075 0.029186917 -0.11450252
0.013470884 -0.0898059 0.08082531 -0.15042488 0.067354426 0.08531561 0.07633501 0.026941769
-0.07858016 -0.092051044 -0.038167506 0.08307046 0.020206327 0.2267599 -0.011225738 -0.03592236
-0.047148097 0.107767075 0.08531561 0.01796118 -0.08082531 -0.022451475 0.06061898 -0.040412653
0.024696622 -0.07184472 0.09878649 0.13246371 -0.01796118 0.0 -0.013470884 0.065109275
-0.14368944 0.11450252 -0.05612869 0.06286413 -0.040412653 0.09878649 -0.04490295 0.058373835
0.07184472 0.020206327 0.07408987 -0.022451475 -0.04490295 0.04490295 -0.058373835 0.07633501
0.10552193 0.015716033 0.0 -0.031432066 -0.19757298 0.033677213 -0.17736664 0.08082531
0.01796118 -0.006735442 -0.09878649 -0.24696623 0.15042488 -0.004490295 -0.04490295 0.107767075
0.013470884 -0.05163839 0.067354426 -0.08307046 0.029186917 0.042657804 0.094296195 -0.011225738
0.06959957 -0.05163839 -0.08756075 -0.107767075 0.058373835 0.15940547 -0.020206327 0.01796118

MynaNet_DSCNN_SE_Res_Att_Wide/block4_residual_proj/Conv2D i1 [384, 1, 1, 156]
00000000: 38c7 3c5a 4d4f 2569 1115 fec5 e854 562e
00000010: ec02 18d0 f20e 5fdb e3e5 caf1 ba58 4741
00000020: 6015 12f8 430d 72b7 fcd0 a277 e718 7f47
00000030: a43e b8fa 5fbf 5dc2 e3e3 d3b7 f13e 2c0f
00000040: f1f9 3fdc e026 1277 131f 291f 0f17 f007
00000050: 162d a6db e2ab 5fa3 5e3c effb f010 2d40
00000060: 7aef f470 2a38 d692 f833 ea0e d444 35cb
00000070: 3c0f 2ad3 f40c 9a49 3d2d 281d d14e c649
00000080: bc28 eefa b6c9 d69e 3ee0 4902 bd02 09d7
00000090: 5337 fb43 6fca 1339 2bb5 46de 2ef8 ff1d
000000a0: f4ee 13fa 1e0e 2053 1e0d fe9c b6ac 94ce
000000b0: 0cdf 2360 c7fd d247 d833 cdc3 0742 b64e
000000c0: dcbe 1c55 2c3c dfba d0e3 273c e5f4 1d21
000000d0: 31a2 b045 25e6 c805 030d c821 7fd5 e2db
000000e0: e215 300e fd13 fa02 ffd8 0bcf 1c91 3c19
000000f0: a360 cb0b f70c ec41 f735 1dd3 ed31 affc
56 -57 60 90 77 79 37 105
17 21 -2 -59 -24 84 86 46
-20 2 24 -48 -14 14 95 -37
-29 -27 -54 -15 -70 88 71 65
96 21 18 -8 67 13 114 -73
-4 -48 -94 119 -25 24 127 71
-92 62 -72 -6 95 -65 93 -62
-29 -29 -45 -73 -15 62 44 15
-15 -7 63 -36 -32 38 18 119
19 31 41 31 15 23 -16 7
22 45 -90 -37 -30 -85 95 -93
94 60 -17 -5 -16 16 45 64
122 -17 -12 112 42 56 -42 -110
-8 51 -22 14 -44 68 53 -53
60 15 42 -45 -12 12 -102 73
61 45 40 29 -47 78 -58 73
-68 40 -18 -6 -74 -55 -42 -98
62 -32 73 2 -67 2 9 -41
83 55 -5 67 111 -54 19 57
43 -75 70 -34 46 -8 -1 29
-12 -18 19 -6 30 14 32 83
30 13 -2 -100 -74 -84 -108 -50
12 -33 35 96 -57 -3 -46 71
-40 51 -51 -61 7 66 -74 78
-36 -66 28 85 44 60 -33 -70
-48 -29 39 60 -27 -12 29 33
49 -94 -80 69 37 -26 -56 5
3 13 -56 33 127 -43 -30 -37
-30 21 48 14 -3 19 -6 2
-1 -40 11 -49 28 -111 60 25
-93 96 -53 11 -9 12 -20 65
-9 53 29 -45 -19 49 -81 -4

MynaNet_DSCNN_SE_Res_Att_Wide/block4_se_expand/Conv2D i1 [384, 1, 1, 16]
00000000: 1816 fbc7 4df9 393c 5d38 7f02 ee31 340a
00000010: 3eda 2218 62d6 7f64 0153 3308 340a 3de5
00000020: 154d 0cd2 4481 ccbd 42bb b0ce 56ae 2f0f
00000030: edf3 5203 7f66 f45f e54a 1905 2e20 62c2
00000040: dfe2 ef7f 4b1d 4eef 38e4 1b35 460a dd03
00000050: 7f4a 010d d417 23ee 0512 e00e edf9 1832
00000060: c93f f8ec e7ff c298 e781 f90a 2856 a06b
00000070: 617f 4bff eaf2 2dc0 0df2 3bfd d126 bd1a
00000080: 4710 1a44 7069 7c3d 4cfd 217f fb3d 1239
00000090: 203e 5914 fcdf d5d3 3816 fdf7 6877 7fbe
000000a0: 1e71 759b 5f02 6f38 f267 367f eb37 5816
000000b0: 7220 15ce 380c 120b 11f5 e90a 8d7f 8e16
000000c0: 7f0a 370f fd1f 42d9 1829 2d0b 2c35 e451
000000d0: e214 81d0 13a0 df42 bff5 cacb 488b cfa6
000000e0: 2510 5d18 d944 29b1 7fd4 c43a 1c61 ce2f
000000f0: fb03 f119 b448 cbde b44a e6f7 e4e5 367f
24 22 -5 -57 77 -7 57 60
93 56 127 2 -18 49 52 10
62 -38 34 24 98 -42 127 100
1 83 51 8 52 10 61 -27
21 77 12 -46 68 -127 -52 -67
66 -69 -80 -50 86 -82 47 15
-19 -13 82 3 127 102 -12 95
-27 74 25 5 46 32 98 -62
-33 -30 -17 127 75 29 78 -17
56 -28 27 53 70 10 -35 3
127 74 1 13 -44 23 35 -18
5 18 -32 14 -19 -7 24 50
-55 63 -8 -20 -25 -1 -62 -104
-25 -127 -7 10 40 86 -96 107
97 127 75 -1 -22 -14 45 -64
13 -14 59 -3 -47 38 -67 26
71 16 26 68 112 105 124 61
76 -3 33 127 -5 61 18 57
32 62 89 20 -4 -33 -43 -45
56 22 -3 -9 104 119 127 -66
30 113 117 -101 95 2 111 56
-14 103 54 127 -21 55 88 22
114 32 21 -50 56 12 18 11
17 -11 -23 10 -115 127 -114 22
127 10 55 15 -3 31 66 -39
24 41 45 11 44 53 -28 81
-30 20 -127 -48 19 -96 -33 66
-65 -11 -54 -53 72 -117 -49 -90
37 16 93 24 -39 68 41 -79
127 -44 -60 58 28 97 -50 47
-5 3 -15 25 -76 72 -53 -34
-76 74 -26 -9 -28 -27 54 127

MynaNet_DSCNN_SE_Res_Att_Wide/block4_se_reduce/Conv2D i1 [16, 1, 1, 384]
00000000: d801 edf7 d943 c112 dbda 492a dad8 1d07
00000010: ee33 2314 5ed0 f1fe 1c05 d2da 2a48 da06
00000020: 5013 43bd 5515 57fe ed3f 14d3 1fcb 1feb
00000030: 21bf 47bf 140d 26b1 0eda 1cfc deec 2cd1
00000040: 0410 2252 f8d3 0420 11d8 09f8 e111 f419
00000050: 2ac2 1ceb 3408 f7fa 2c2a ed0f ae3c d01b
00000060: 10f3 dd2a 2706 41c1 2afe 0c1a f7e7 e2fa
00000070: 441f e2d3 dc19 cbde 3ab5 21e9 05f8 f75b
00000080: 6500 c98c ad46 c727 20f8 2c01 06e5 460c
00000090: cfdd 202d 0700 3dfa 1503 a1cf 0e8f 5905
000000a0: d5c5 eeb8 bae6 21d7 f13d def0 6a3b c407
000000b0: ff31 44d5 25c5 0fe9 410b b1d5 ce43 a024
000000c0: 2aac 09be 0703 00d3 fcc8 4fec 05e6 ea47
000000d0: 0748 5551 c139 1237 ed0a 663e 0eb5 b50b
000000e0: a2fa df02 d0da 35cb e0d9 5e1d 18b8 e3f7
000000f0: d62f d22c 3e41 d4e7 10d6 d1f2 2ff5 0952
-40 1 -19 -9 -39 67 -63 18
-37 -38 73 42 -38 -40 29 7
-18 51 35 20 94 -48 -15 -2
28 5 -46 -38 42 72 -38 6
80 19 67 -67 85 21 87 -2
-19 63 20 -45 31 -53 31 -21
33 -65 71 -65 20 13 38 -79
14 -38 28 -4 -34 -20 44 -47
4 16 34 82 -8 -45 4 32
17 -40 9 -8 -31 17 -12 25
42 -62 28 -21 52 8 -9 -6
44 42 -19 15 -82 60 -48 27
16 -13 -35 42 39 6 65 -63
42 -2 12 26 -9 -25 -30 -6
68 31 -30 -45 -36 25 -53 -34
58 -75 33 -23 5 -8 -9 91
101 0 -55 -116 -83 70 -57 39
32 -8 44 1 6 -27 70 12
-49 -35 32 45 7 0 61 -6
21 3 -95 -49 14 -113 89 5
-43 -59 -18 -72 -70 -26 33 -41
-15 61 -34 -16 106 59 -60 7
-1 49 68 -43 37 -59 15 -23
65 11 -79 -43 -50 67 -96 36
42 -84 9 -66 7 3 0 -45
-4 -56 79 -20 5 -26 -22 71
7 72 85 81 -63 57 18 55
-19 10 102 62 14 -75 -75 11
-94 -6 -33 2 -48 -38 53 -53
-32 -39 94 29 24 -72 -29 -9
-42 47 -46 44 62 65 -44 -25
16 -42 -47 -14 47 -11 9 82

MynaNet_DSCNN_SE_Res_Att_Wide/block4_pointwise/Conv2D i1 [384, 1, 1, 156]
00000000: 7f52 03e8 0cd0 af6b 0419 d0d8 22f2 c5d5
00000010: c5ba 2ee6 a831 32e5 0fd6 c8e8 d334 eeed
00000020: f5ee b5f4 f4dd 0448 a4cc 61eb fcba b2b9
00000030: e65e c8d1 1a60 361b e9c8 e096 1729 4e18
00000040: 2703 bb17 f316 6408 fd3e 0768 4ab9 e48c
00000050: d607 1234 2ddd 30fc 417b f941 f5df cc35
00000060: b9c7 ce55 cceb 1a9d 54fa ff22 2f48 44be
00000070: c821 2a33 b7d6 c649 2cd6 ee0d d52b f03f
00000080: cd61 bf1c b770 9529 1413 9603 d4d7 1a00
00000090: 07f9 3f01 f1a4 f22a 392f 55c0 1808 2bc1
000000a0: 31db e340 39e4 2ad5 0b19 6418 e9ce dbe9
000000b0: f30d 2657 0e39 a0fa e8e0 eb14 0b0b e85a
000000c0: 16c4 ff4b e131 14de ee2d 2852 0441 f760
000000d0: f84a 2deb 9dd4 fe02 2328 05e7 68fc 0112
000000e0: ba0c f4f6 f1d5 2036 4edb 33ff 074c f21e
000000f0: f6fd 06df f7d4 021c 3cb3 0e0e dc0e f9e4
127 82 3 -24 12 -48 -81 107
4 25 -48 -40 34 -14 -59 -43
-59 -70 46 -26 -88 49 50 -27
15 -42 -56 -24 -45 52 -18 -19
-11 -18 -75 -12 -12 -35 4 72
-92 -52 97 -21 -4 -70 -78 -71
-26 94 -56 -47 26 96 54 27
-23 -56 -32 -106 23 41 78 24
39 3 -69 23 -13 22 100 8
-3 62 7 104 74 -71 -28 -116
-42 7 18 52 45 -35 48 -4
65 123 -7 65 -11 -33 -52 53
-71 -57 -50 85 -52 -21 26 -99
84 -6 -1 34 47 72 68 -66
-56 33 42 51 -73 -42 -58 73
44 -42 -18 13 -43 43 -16 63
-51 97 -65 28 -73 112 -107 41
20 19 -106 3 -44 -41 26 0
7 -7 63 1 -15 -92 -14 42
57 47 85 -64 24 8 43 -63
49 -37 -29 64 57 -28 42 -43
11 25 100 24 -23 -50 -37 -23
-13 13 38 87 14 57 -96 -6
-24 -32 -21 20 11 11 -24 90
22 -60 -1 75 -31 49 20 -34
-18 45 40 82 4 65 -9 96
-8 74 45 -21 -99 -44 -2 2
35 40 5 -25 104 -4 1 18
-70 12 -12 -10 -15 -43 32 54
78 -37 51 -1 7 76 -14 30
-10 -3 6 -33 -9 -44 2 28
60 -77 14 14 -36 14 -7 -28

MynaNet_DSCNN_SE_Res_Att_Wide/block4_depthwise_bn/FusedBatchNormV3;MynaNet_DSCNN_SE_Res_Att_Wide/block4_depthwise/depthwise i1 [1, 3, 3, 156]
00000000: f57f a0e2 c901 7ffb f9fe c228 c781 1b02
00000010: 15a7 e3fa b904 81a8 7508 0ea7 bf18 95ad
00000020: f6f3 5f9e 0806 e091 bb7a 53c9 115d 858c
00000030: 9b3a 0290 bdb3 f200 eef3 9dfb ddd8 4044
00000040: 8195 00c3 c93b 7e7f b6e8 9ea7 a6a4 cfa2
00000050: 8c9c 4edc f117 0133 ce15 d566 8118 eb8d
00000060: a4da f1df 7f81 fb5f 2e81 1e46 4ddd 2f0a
00000070: 9aa4 bbbd 1dab 3ed3 fce1 bd94 fe28 5007
00000080: 8af8 3cbb 20ae bb93 a370 0874 56e0 dc12
00000090: 053f 9403 8541 b58f 0c65 7f01 ec3d 9cb0
000000a0: 017f a992 7f17 daf3 05ab 3d2e e3d2 dd13
000000b0: 3d7f 90f0 77fe d3fb f641 05c9 0481 03b7
000000c0: 1222 f7d1 d9ec 273d 2d26 d381 8c36 e781
000000d0: 9d69 0750 b2be a5f9 aae0 11e4 7634 fad6
000000e0: 8139 1cd8 b01f 81ad e846 fd77 169f dfad
000000f0: 14cd f825 eae1 c2d1 c97f 8d38 f4c0 812a
-11 127 -96 -30 -55 1 127 -5
-7 -2 -62 40 -57 -127 27 2
21 -89 -29 -6 -71 4 -127 -88
117 8 14 -89 -65 24 -107 -83
-10 -13 95 -98 8 6 -32 -111
-69 122 83 -55 17 93 -123 -116
-101 58 2 -112 -67 -77 -14 0
-18 -13 -99 -5 -35 -40 64 68
-127 -107 0 -61 -55 59 126 127
-74 -24 -98 -89 -90 -92 -49 -94
-116 -100 78 -36 -15 23 1 51
-50 21 -43 102 -127 24 -21 -115
-92 -38 -15 -33 127 -127 -5 95
46 -127 30 70 77 -35 47 10
-102 -92 -69 -67 29 -85 62 -45
-4 -31 -67 -108 -2 40 80 7
-118 -8 60 -69 32 -82 -69 -109
-93 112 8 116 86 -32 -36 18
5 63 -108 3 -123 65 -75 -113
12 101 127 1 -20 61 -100 -80
1 127 -87 -110 127 23 -38 -13
5 -85 61 46 -29 -46 -35 19
61 127 -112 -16 119 -2 -45 -5
-10 65 5 -55 4 -127 3 -73
18 34 -9 -47 -39 -20 39 61
45 38 -45 -127 -116 54 -25 -127
-99 105 7 80 -78 -66 -91 -7
-86 -32 17 -28 118 52 -6 -42
-127 57 28 -40 -80 31 -127 -83
-24 70 -3 119 22 -97 -33 -83
20 -51 -8 37 -22 -31 -62 -47
-55 127 -115 56 -12 -64 -127 42
