results_linux/1e_dscnn_se_res_att_wide_mels64_drop05_rand42_warm70_mixup0.2_split75:10:15_linux/model_int8.tflite (tflite, 541640 bytes, 33 tensors)

MynaNet_DSCNN_SE_Res_Att_Wide/output/MatMul i1 [10, 192] scale=0.0024817768 zero_point=0
000000 c7 18 c2 d3 0f 9c e7 1a 43 23 32 f0 e0 fe 21 a9
       -0.14146127 0.059562642 -0.15387017 -0.11167996 0.03722665 -0.24817768 -0.06204442 0.06452619 0.16627905 0.086862184 0.12408884 -0.039708428 -0.079416856 -0.0049635535 0.08189863 -0.21591458
000010 b4 17 c4 f9 3e 1f 3b c5 10 05 37 18 1a 17 eb d4
       -0.18861504 0.057080865 -0.1489066 -0.017372437 0.15387017 0.07693508 0.14642483 -0.14642483 0.039708428 0.012408884 0.13649772 0.059562642 0.06452619 0.057080865 -0.05211731 -0.109198175
000020 f5 07 e2 a1 e0 39 ea 29 2f 13 ad 0e fa d4 fa e3
       -0.027299544 0.017372437 -0.0744533 -0.2357688 -0.079416856 0.14146127 -0.054599088 0.10175285 0.11664351 0.04715376 -0.20598747 0.034744874 -0.0148906605 -0.109198175 -0.0148906605 -0.07197153
000030 2f f6 2f f9 d9 c4 42 ac df bf c5 03 50 0f 24 2f
       0.11664351 -0.024817768 0.11664351 -0.017372437 -0.09678929 -0.1489066 0.16379726 -0.20846924 -0.08189863 -0.16131549 -0.14642483 0.0074453303 0.19854215 0.03722665 0.089343965 0.11664351
000040 29 c8 34 cc a0 c4 3e f7 d9 a5 08 10 38 4d 34 40
       0.10175285 -0.1389795 0.12905239 -0.12905239 -0.23825057 -0.1489066 0.15387017 -0.022335991 -0.09678929 -0.22584169 0.019854214 0.039708428 0.1389795 0.19109681 0.12905239 0.15883371
000050 2c a2 04 ae 44 1b 00 0e 05 34 1c 32 ef f1 b4 1b
       0.109198175 -0.23328702 0.009927107 -0.2035057 0.16876082 0.067007974 0.0 0.034744874 0.012408884 0.12905239 0.06948975 0.12408884 -0.042190205 -0.03722665 -0.18861504 0.067007974
000060 ad f0 1b c2 32 e3 aa 43 2c 24 31 b5 00 d3 f3 1a
       -0.20598747 -0.039708428 0.067007974 -0.15387017 0.12408884 -0.07197153 -0.2134328 0.16627905 0.109198175 0.089343965 0.12160706 -0.18613325 0.0 -0.11167996 -0.032263096 0.06452619
000070 d7 f1 3f 2e 25 af 23 e5 22 15 ac 3f 1e e0 27 ce
       -0.10175285 -0.03722665 0.15635194 0.11416173 0.09182574 -0.20102392 0.086862184 -0.067007974 0.08438041 0.05211731 -0.20846924 0.15635194 0.0744533 -0.079416856 0.09678929 -0.12408884
000080 46 0d 11 02 44 c9 0d bb 37 e3 b9 28 be d2 2c f0
       0.17372437 0.032263096 0.042190205 0.0049635535 0.16876082 -0.13649772 0.032263096 -0.1712426 0.13649772 -0.07197153 -0.17620616 0.099271074 -0.16379726 -0.11416173 0.109198175 -0.039708428
000090 f9 2c f4 19 b0 25 1c 23 ed f3 24 3a 29 d5 2a 34
       -0.017372437 0.109198175 -0.029781321 0.06204442 -0.19854215 0.09182574 0.06948975 0.086862184 -0.04715376 -0.032263096 0.089343965 0.14394306 0.10175285 -0.1067164 0.10423462 0.12905239
0000a0 22 02 07 d3 a5 01 f8 39 bb fb 19 cb dd 25 e5 de
       0.08438041 0.0049635535 0.017372437 -0.11167996 -0.22584169 0.0024817768 -0.019854214 0.14146127 -0.1712426 -0.012408884 0.06204442 -0.13153417 -0.086862184 0.09182574 -0.067007974 -0.08438041
0000b0 9a c8 ca 35 3d ab c3 bd 2f 10 27 06 bb 94 de 0c
       -0.25314122 -0.1389795 -0.13401595 0.13153417 0.15138838 -0.21095103 -0.15138838 -0.16627905 0.11664351 0.039708428 0.09678929 0.0148906605 -0.1712426 -0.2680319 -0.08438041 0.029781321
0000c0 26 48 c5 18 14 0c 10 c6 49 be eb cd ed fb 2c bd
       0.09430752 0.17868793 -0.14642483 0.059562642 0.049635537 0.029781321 0.039708428 -0.14394306 0.1811697 -0.16379726 -0.05211731 -0.12657061 -0.04715376 -0.012408884 0.109198175 -0.16627905
0000d0 0c d3 20 f8 29 f7 4e dc f9 04 0c 1e 1a a7 30 cd
       0.029781321 -0.11167996 0.079416856 -0.019854214 0.10175285 -0.022335991 0.19357859 -0.089343965 -0.017372437 0.009927107 0.029781321 0.0744533 0.06452619 -0.22087812 0.119125284 -0.12657061
0000e0 d0 ed 32 47 f1 cd ff 06 40 ec 25 c1 db b7 47 1a
       -0.119125284 -0.04715376 0.12408884 0.17620616 -0.03722665 -0.12657061 -0.0024817768 0.0148906605 0.15883371 -0.049635537 0.09182574 -0.15635194 -0.09182574 -0.1811697 0.17620616 0.06452619
0000f0 c4 e5 b3 e8 d0 33 0e f5 da d9 26 fe c9 b4 15 bd
       -0.1489066 -0.067007974 -0.19109681 -0.059562642 -0.119125284 0.12657061 0.034744874 -0.027299544 -0.09430752 -0.09678929 0.09430752 -0.0049635535 -0.13649772 -0.18861504 0.05211731 -0.16627905

MynaNet_DSCNN_SE_Res_Att_Wide/fc1_bn/batchnorm/mul_1 i1 [192, 96] scale=0.0028650775 zero_point=0
000000 c1 f6 1a fc d2 36 14 0f fd 14 ee 07 30 3b 06 13
       -0.18049988 -0.028650776 0.074492015 -0.01146031 -0.13179356 0.15471418 0.05730155 0.042976163 -0.008595232 0.05730155 -0.051571395 0.020055542 0.13752371 0.16903958 0.017190464 0.05443647
000010 0f 22 fe 4d bf 14 eb c0 ec 02 e8 23 f1 f3 01 27
       0.042976163 0.09741263 -0.005730155 0.22061096 -0.18623003 0.05730155 -0.060166627 -0.18336496 -0.05730155 0.005730155 -0.068761855 0.100277714 -0.042976163 -0.037246007 0.0028650775 0.11173802
000020 c4 4b c6 c5 fc 2e 0d fa 07 0c f5 34 28 38 dc f2
       -0.17190465 0.21488081 -0.16617449 -0.16903958 -0.01146031 0.13179356 0.037246007 -0.017190464 0.020055542 0.034380928 -0.03151585 0.14898403 0.1146031 0.16044433 -0.10314279 -0.040111084
000030 b6 d5 ef 36 fb 1b 19 f9 1d fd 47 0d bd ee ce cd
       -0.21201573 -0.12319833 -0.048706315 0.15471418 -0.014325388 0.07735709 0.07162694 -0.020055542 0.08308724 -0.008595232 0.2034205 0.037246007 -0.19196019 -0.051571395 -0.14325388 -0.14611895
000040 f3 fd ed 0d 0b 12 23 06 66 36 05 cb c6 51 f9 40
       -0.037246007 -0.008595232 -0.05443647 0.037246007 0.03151585 0.051571395 0.100277714 0.017190464 0.2922379 0.15471418 0.014325388 -0.1518491 -0.16617449 0.23207128 -0.020055542 0.18336496
000050 0e 05 13 51 f5 c2 ca be 2c 10 e5 05 19 07 11 e7
       0.040111084 0.014325388 0.05443647 0.23207128 -0.03151585 -0.1776348 -0.15471418 -0.18909511 0.1260634 0.04584124 -0.07735709 0.014325388 0.07162694 0.020055542 0.048706315 -0.07162694
000060 2e d8 dd 17 3d fe bb d7 e9 3c 25 a9 d4 d8 1d 12
       0.13179356 -0.1146031 -0.100277714 0.06589678 0.17476973 -0.005730155 -0.19769034 -0.11746818 -0.06589678 0.17190465 0.10600787 -0.24926174 -0.1260634 -0.1146031 0.08308724 0.051571395
000070 b5 06 42 da 21 22 ef ee 21 51 c4 49 f9 2c 28 12
       -0.21488081 0.017190464 0.18909511 -0.10887294 0.094547555 0.09741263 -0.048706315 -0.051571395 0.094547555 0.23207128 -0.17190465 0.20915066 -0.020055542 0.1260634 0.1146031 0.051571395
000080 1e ec 23 2d 29 fe 2a d8 d1 f9 ff 29 01 de ca 05
       0.08595233 -0.05730155 0.100277714 0.12892848 0.11746818 -0.005730155 0.120333254 -0.1146031 -0.13465863 -0.020055542 -0.0028650775 0.11746818 0.0028650775 -0.09741263 -0.15471418 0.014325388
000090 02 21 29 15 11 e7 f3 eb 13 1b 41 4b ea fd 3f 0d
       0.005730155 0.094547555 0.11746818 0.060166627 0.048706315 -0.07162694 -0.037246007 -0.060166627 0.05443647 0.07735709 0.18623003 0.21488081 -0.0630317 -0.008595232 0.18049988 0.037246007
0000a0 e5 03 df 11 10 1e 3d 40 13 00 10 bc d2 e9 04 d3
       -0.07735709 0.008595232 -0.094547555 0.048706315 0.04584124 0.08595233 0.17476973 0.18336496 0.05443647 0.0 0.04584124 -0.19482526 -0.13179356 -0.06589678 0.01146031 -0.12892848
0000b0 e6 c5 1f ef ec da 08 f0 f0 f4 c3 44 03 db 03 30
       -0.074492015 -0.16903958 0.0888174 -0.048706315 -0.05730155 -0.10887294 0.02292062 -0.04584124 -0.04584124 -0.034380928 -0.17476973 0.19482526 0.008595232 -0.10600787 0.008595232 0.13752371
0000c0 d6 45 ee cb fe f9 fb 15 ef c0 3c 3d 39 04 f1 df
       -0.120333254 0.19769034 -0.051571395 -0.1518491 -0.005730155 -0.020055542 -0.014325388 0.060166627 -0.048706315 -0.18336496 0.17190465 0.17476973 0.16330941 0.01146031 -0.042976163 -0.094547555
0000d0 16 c7 f3 f6 4d 0a 02 d7 e6 f6 22 d2 11 d0 f7 bd
       0.0630317 -0.16330941 -0.037246007 -0.028650776 0.22061096 0.028650776 0.005730155 -0.11746818 -0.074492015 -0.028650776 0.09741263 -0.13179356 0.048706315 -0.13752371 -0.025785698 -0.19196019
0000e0 de d6 eb 10 c1 f8 11 f5 3e ce 0d 0b e6 e8 e4 24
       -0.09741263 -0.120333254 -0.060166627 0.04584124 -0.18049988 -0.02292062 0.048706315 -0.03151585 0.1776348 -0.14325388 0.037246007 0.03151585 -0.074492015 -0.068761855 -0.08022217 0.10314279
0000f0 cd db f9 dc 09 d7 30 26 c1 00 b8 f5 12 f3 fe ae
       -0.14611895 -0.10600787 -0.020055542 -0.10314279 0.025785698 -0.11746818 0.13752371 0.10887294 -0.18049988 0.0 -0.20628558 -0.03151585 0.051571395 -0.037246007 -0.005730155 -0.23493636

MynaNet_DSCNN_SE_Res_Att_Wide/att_ln/add/ReadVariableOp i1 [96] scale=3.594681e-05 zero_point=17
000000 77 11 3c 21 10 38 15 02 c3 fe f7 35 ef f1 ff 43
       0.0036665746 0.0 0.0015457128 0.00057514897 -3.594681e-05 0.0014019256 0.00014378724 -0.0005392021 -0.0028038512 -0.00068298937 -0.00093461707 0.0012940852 -0.0012221916 -0.0011502979 -0.0006470426 0.0017973406
000010 2c 1d 25 02 7f ea b0 d4 fd 2e 1a dc 1a 23 1e fc
       0.00097056385 0.00043136172 0.0007189362 -0.0005392021 0.0039541493 -0.0014019256 -0.0034868405 -0.0021927555 -0.0007189362 0.0010424575 0.0003235213 -0.001905181 0.0003235213 0.0006470426 0.00046730854 -0.00075488305
000020 fa 0f dd 0a 35 35 13 0f 1e ff 0f 50 2d f8 0b db
       -0.0008267766 -7.189362e-05 -0.0018692341 -0.00025162767 0.0012940852 0.0012940852 7.189362e-05 -7.189362e-05 0.00046730854 -0.0006470426 -7.189362e-05 0.0022646491 0.0010065107 -0.0008986703 -0.00021568086 -0.0019411277
000030 f6 13 c7 49 f9 f4 ac e1 ae 57 0a fe 66 f5 08 0a
       -0.00097056385 7.189362e-05 -0.002660064 0.0020130214 -0.00086272345 -0.0010424575 -0.0036306279 -0.0017254469 -0.0035587342 0.0025162767 -0.00025162767 -0.00068298937 0.003055479 -0.0010065107 -0.0003235213 -0.00025162767
000040 20 12 1e e1 47 07 11 36 16 18 e2 c8 e2 ee 07 10
       0.0005392021 3.594681e-05 0.00046730854 -0.0017254469 0.0019411277 -0.0003594681 0.0 0.001330032 0.00017973405 0.00025162767 -0.0016895001 -0.002624117 -0.0016895001 -0.0012581383 -0.0003594681 -3.594681e-05
000050 32 80 ea 12 e1 1b 12 25 e6 fa 3d 29 f3 2f 01 ff
       0.0011862448 -0.0052122874 -0.0014019256 3.594681e-05 -0.0017254469 0.0003594681 3.594681e-05 0.0007189362 -0.0015457128 -0.0008267766 0.0015816597 0.00086272345 -0.0010784043 0.0010784043 -0.00057514897 -0.0006470426

MynaNet_DSCNN_SE_Res_Att_Wide/att_ln/mul/ReadVariableOp i1 [96] scale=0.0045239143 zero_point=-128
000000 74 58 54 5a 51 57 56 56 51 7d 47 5f 54 57 53 51
       1.1038351 0.97716546 0.95906985 0.9862133 0.9454981 0.9726416 0.96811765 0.96811765 0.9454981 1.1445503 0.90025896 1.0088329 0.95906985 0.9726416 0.9545459 0.9454981
000010 71 66 3e 51 75 4c 53 4d 67 5e 59 54 4b 45 51 4d
       1.0902634 1.0405003 0.85954374 0.9454981 1.108359 0.9228785 0.9545459 0.92740244 1.0450242 1.0043089 0.9816894 0.95906985 0.91835463 0.8912111 0.9454981 0.92740244
000020 45 49 58 43 64 50 52 56 51 3e 5e 44 40 59 5f 54
       0.8912111 0.90930676 0.97716546 0.8821633 1.0314524 0.9409742 0.950022 0.96811765 0.9454981 0.85954374 1.0043089 0.8866872 0.86859155 0.9816894 1.0088329 0.95906985
000030 4e 4d 53 4c 4f 53 6e 54 6a 60 3b 7f 4c 69 73 48
       0.93192637 0.92740244 0.9545459 0.9228785 0.93645024 0.9545459 1.0766916 0.95906985 1.0585959 1.0133568 0.845972 1.1535982 0.9228785 1.054072 1.0993112 0.9047829
000040 73 54 48 5f 4a 59 6d 66 50 53 6b 53 61 68 4d 55
       1.0993112 0.95906985 0.9047829 1.0088329 0.9138307 0.9816894 1.0721676 1.0405003 0.9409742 0.9545459 1.0631199 0.9545459 1.0178807 1.0495481 0.92740244 0.9635937
000050 53 4d 66 4b 4f 55 55 58 58 49 5b 48 67 63 51 51
       0.9545459 0.92740244 1.0405003 0.91835463 0.93645024 0.9635937 0.9635937 0.97716546 0.97716546 0.90930676 0.99073726 0.9047829 1.0450242 1.0269285 0.9454981 0.9454981

MynaNet_DSCNN_SE_Res_Att_Wide/enhanced_mhsa/attention_output/einsum/Einsum i1 [96, 192] scale=0.002066058 zero_point=0
000000 23 fe c8 13 fa 0e e3 1f 0f c0 37 30 f1 1c de 08
       0.072312035 -0.004132116 -0.115699254 0.039255105 -0.012396349 0.028924813 -0.059915684 0.0640478 0.030990873 -0.13222772 0.11363319 0.09917079 -0.030990873 0.057849627 -0.070245974 0.016528465
000010 a7 ea 4b f2 f1 2a 2d 24 09 50 ee 0b bc 22 25 29
       -0.18387917 -0.04545328 0.15495436 -0.028924813 -0.030990873 0.08677444 0.092972614 0.07437809 0.018594522 0.16528465 -0.037189044 0.02272664 -0.14049195 0.070245974 0.07644415 0.084708385
000020 f7 fb 1e 18 f6 17 ec dc 03 e1 ce 41 06 20 e8 4b
       -0.018594522 -0.0103302905 0.061981745 0.049585395 -0.020660581 0.047519337 -0.041321162 -0.07437809 0.0061981743 -0.0640478 -0.1033029 0.13429378 0.012396349 0.06611386 -0.049585395 0.15495436
000030 06 05 e7 e0 e3 2b ed f1 d3 35 d1 0e ad 23 38 d2
       0.012396349 0.0103302905 -0.05165145 -0.06611386 -0.059915684 0.0888405 -0.039255105 -0.030990873 -0.092972614 0.10950108 -0.09710473 0.028924813 -0.17148282 0.072312035 0.115699254 -0.095038675
000040 18 d5 15 ca de e4 0c ef 2a e4 ff b8 ca 06 fb 03
       0.049585395 -0.0888405 0.04338722 -0.11156714 -0.070245974 -0.057849627 0.024792697 -0.035122987 0.08677444 -0.057849627 -0.002066058 -0.14875618 -0.11156714 0.012396349 -0.0103302905 0.0061981743
000050 dd 09 ee 1a f7 f4 f3 25 38 38 1a ed f0 2d f8 e3
       -0.072312035 0.018594522 -0.037189044 0.05371751 -0.018594522 -0.024792697 -0.026858754 0.07644415 0.115699254 0.115699254 0.05371751 -0.039255105 -0.03305693 0.092972614 -0.016528465 -0.059915684
000060 15 e5 e6 02 c7 45 18 18 c7 fe 1e f6 10 32 ea 07
       0.04338722 -0.05578357 -0.05371751 0.004132116 -0.117765315 0.14255801 0.049585395 0.049585395 -0.117765315 -0.004132116 0.061981745 -0.020660581 0.03305693 0.1033029 -0.04545328 0.014462407
000070 18 d4 36 d4 22 30 48 1e 13 c8 ea 34 d7 e5 0e f9
       0.049585395 -0.09090656 0.11156714 -0.09090656 0.070245974 0.09917079 0.14875618 0.061981745 0.039255105 -0.115699254 -0.04545328 0.10743502 -0.084708385 -0.05578357 0.028924813 -0.014462407
000080 f8 fe 03 15 17 33 2c 23 20 d7 e1 bf da 0d 31 21
       -0.016528465 -0.004132116 0.0061981743 0.04338722 0.047519337 0.105368964 0.09090656 0.072312035 0.06611386 -0.084708385 -0.0640478 -0.13429378 -0.07851021 0.026858754 0.10123685 0.06817992
000090 bc b8 ca 08 26 f4 d2 4e 14 b6 4e 1e 21 d4 f3 e5
       -0.14049195 -0.14875618 -0.11156714 0.016528465 0.07851021 -0.024792697 -0.095038675 0.16115253 0.041321162 -0.1528883 0.16115253 0.061981745 0.06817992 -0.09090656 -0.026858754 -0.05578357
0000a0 34 0d 30 cd dd 0e d8 20 00 04 35 e8 d5 28 23 38
       0.10743502 0.026858754 0.09917079 -0.105368964 -0.072312035 0.028924813 -0.082642324 0.06611386 0.0 0.008264232 0.10950108 -0.049585395 -0.0888405 0.082642324 0.072312035 0.115699254
0000b0 22 de d7 f3 cd 13 12 1f e5 f5 f8 d7 14 f6 c0 f9
       0.070245974 -0.070245974 -0.084708385 -0.026858754 -0.105368964 0.039255105 0.037189044 0.0640478 -0.05578357 -0.02272664 -0.016528465 -0.084708385 0.041321162 -0.020660581 -0.13222772 -0.014462407
0000c0 f4 d9 05 3b d5 f4 f0 df 2f f9 0b 1b b3 ef 16 f7
       -0.024792697 -0.08057626 0.0103302905 0.12189743 -0.0888405 -0.024792697 -0.03305693 -0.06817992 0.09710473 -0.014462407 0.02272664 0.05578357 -0.15908648 -0.035122987 0.04545328 -0.018594522
0000d0 46 18 00 11 f1 3c c3 12 f7 04 de 41 20 d7 d2 d5
       0.14462407 0.049585395 0.0 0.035122987 -0.030990873 0.12396349 -0.12602955 0.037189044 -0.018594522 0.008264232 -0.070245974 0.13429378 0.06611386 -0.084708385 -0.095038675 -0.0888405
0000e0 06 09 15 00 ff ea 0d c6 3c 38 d7 b2 ff fa e8 d8
       0.012396349 0.018594522 0.04338722 0.0 -0.002066058 -0.04545328 0.026858754 -0.11983137 0.12396349 0.115699254 -0.084708385 -0.16115253 -0.002066058 -0.012396349 -0.049585395 -0.082642324
0000f0 e3 0a f0 da 04 0b fd fb 1c e8 28 36 14 d0 0b e5
       -0.059915684 0.020660581 -0.03305693 -0.07851021 0.008264232 0.02272664 -0.0061981743 -0.0103302905 0.057849627 -0.049585395 0.082642324 0.11156714 0.041321162 -0.09917079 0.02272664 -0.05578357

MynaNet_DSCNN_SE_Res_Att_Wide/enhanced_mhsa/value/add/ReadVariableOp i1 [4, 48] scale=0.00079655217 zero_point=-10
000000 0d 5e f1 ea 39 f1 21 b2 96 19 d0 dd 02 d5 72 e8
       0.0183207 0.082841426 -0.003982761 -0.0095586255 0.053368997 -0.003982761 0.034251742 -0.054165546 -0.076469004 0.027879326 -0.030268982 -0.019913804 0.0095586255 -0.026286222 0.098772466 -0.01115173
000010 73 a1 ea fb 3a de 4f c3 83 9f 08 37 33 0b 06 bc
       0.09956902 -0.067706935 -0.0095586255 0.003982761 0.054165546 -0.019117251 0.070893146 -0.04062416 -0.0916035 -0.06930004 0.014337939 0.05177589 0.04858968 0.016727595 0.012744835 -0.046200026
000020 12 14 cd cd 3d bc d2 31 fe 70 2f 01 b1 24 b7 cd
       0.02230346 0.023896566 -0.03265864 -0.03265864 0.056555204 -0.046200026 -0.028675878 0.04699658 0.0063724173 0.09717936 0.045403473 0.008762074 -0.0549621 0.0366414 -0.050182786 -0.03265864
000030 e3 eb 57 1c a1 20 01 9f d4 e4 d2 99 2e 58 a7 14
       -0.015134491 -0.008762074 0.07726556 0.030268982 -0.067706935 0.03345519 0.008762074 -0.06930004 -0.027082773 -0.014337939 -0.028675878 -0.07407935 0.04460692 0.07806211 -0.06292762 0.023896566
000040 38 dc 9f c0 db f9 05 79 39 7f f1 15 d7 1d ed cf
       0.052572444 -0.020710357 -0.06930004 -0.04301382 -0.02150691 0.0023896564 0.011948283 0.10434833 0.053368997 0.10912765 -0.003982761 0.024693117 -0.024693117 0.031065535 -0.0071689696 -0.031065535
000050 da c1 06 f5 28 df e0 ae c4 17 4a eb 4c e9 eb f7
       -0.02230346 -0.042217266 0.012744835 -0.00079655217 0.039827608 -0.0183207 -0.017524147 -0.057351757 -0.039827608 0.026286222 0.06691038 -0.008762074 0.068503484 -0.010355178 -0.008762074 0.00079655217
000060 d7 3a 09 fa 2e d1 c9 fe f3 d5 d7 b2 4e 10 a2 f4
       -0.024693117 0.054165546 0.015134491 0.0031862087 0.04460692 -0.02947243 -0.035844848 0.0063724173 -0.0023896564 -0.026286222 -0.024693117 -0.054165546 0.07009659 0.020710357 -0.06691038 -0.0015931043
000070 88 d5 e7 0e 97 bf a6 09 1f 1c 11 d3 0b 2e 43 0f
       -0.087620735 -0.026286222 -0.011948283 0.019117251 -0.075672455 -0.043810368 -0.063724175 0.015134491 0.03265864 0.030268982 0.02150691 -0.027879326 0.016727595 0.04460692 0.061334517 0.019913804
000080 e0 f3 b4 bf 0d ed a0 ef c9 bf f8 1e de 0c db c0
       -0.017524147 -0.0023896564 -0.052572444 -0.043810368 0.0183207 -0.0071689696 -0.068503484 -0.005575865 -0.035844848 -0.043810368 0.0015931043 0.031862088 -0.019117251 0.017524147 -0.02150691 -0.04301382
000090 35 69 24 dd da f4 f4 b7 28 4f 00 fe 13 6f a6 43
       0.050182786 0.0916035 0.0366414 -0.019913804 -0.02230346 -0.0015931043 -0.0015931043 -0.050182786 0.039827608 0.070893146 0.007965522 0.0063724173 0.023100013 0.09638281 -0.063724175 0.061334517
0000a0 b3 43 d8 ec 08 e5 4a ce 2b 19 a9 80 eb f8 9f ae
       -0.053368997 0.061334517 -0.023896566 -0.007965522 0.014337939 -0.013541386 0.06691038 -0.031862088 0.042217266 0.027879326 -0.061334517 -0.09399316 -0.008762074 0.0015931043 -0.06930004 -0.057351757
0000b0 e5 19 eb c1 84 c4 b4 00 37 c6 e6 e5 54 06 c5 ca
       -0.013541386 0.027879326 -0.008762074 -0.042217266 -0.090806946 -0.039827608 -0.052572444 0.007965522 0.05177589 -0.038234502 -0.012744835 -0.013541386 0.074875906 0.012744835 -0.039031055 -0.035048295

MynaNet_DSCNN_SE_Res_Att_Wide/enhanced_mhsa/value/einsum/Einsum i1 [192, 96] scale=0.0016106977 zero_point=0
000000 c5 0a e5 06 cb 0c bb fc 0a 3b 43 04 f0 15 ef d8
       -0.095031165 0.016106978 -0.043488838 0.009664186 -0.08536698 0.019328373 -0.11113814 -0.006442791 0.016106978 0.095031165 0.10791675 0.006442791 -0.025771163 0.033824652 -0.027381862 -0.06442791
000010 ed 40 16 05 cb 9a 39 0f 04 23 00 0d 0b f7 25 f2
       -0.030603256 0.10308465 0.03543535 0.008053489 -0.08536698 -0.16429117 0.09180977 0.024160465 0.006442791 0.05637442 0.0 0.02093907 0.017717674 -0.01449628 0.059595816 -0.022549767
000020 17 09 11 f5 df 3c ff 27 e1 04 de 0c 01 0c cc dd
       0.03704605 0.01449628 0.027381862 -0.017717674 -0.053153023 0.09664186 -0.0016106977 0.06281721 -0.04993163 0.006442791 -0.054763723 0.019328373 0.0016106977 0.019328373 -0.08375628 -0.05637442
000030 b5 3f eb 09 01 f6 e9 df 1f 0a e5 ea 03 0b f9 0f
       -0.12080233 0.10147396 -0.033824652 0.01449628 0.0016106977 -0.016106978 -0.03704605 -0.053153023 0.04993163 0.016106978 -0.043488838 -0.03543535 0.004832093 0.017717674 -0.0112748835 0.024160465
000040 07 fe f2 07 07 f2 02 37 f8 fc 06 ec e9 d6 fd ea
       0.0112748835 -0.0032213954 -0.022549767 0.0112748835 0.0112748835 -0.022549767 0.0032213954 0.08858837 -0.012885582 -0.006442791 0.009664186 -0.032213956 -0.03704605 -0.067649305 -0.004832093 -0.03543535
000050 b6 c6 04 ea c8 16 08 3b dd 01 f2 f7 02 05 12 1e
       -0.11919163 -0.09342047 0.006442791 -0.03543535 -0.09019907 0.03543535 0.012885582 0.095031165 -0.05637442 0.0016106977 -0.022549767 -0.01449628 0.0032213954 0.008053489 0.02899256 0.04832093
000060 14 e9 1b f8 03 15 35 1a 0d ad e4 e7 f0 fa 0f e0
       0.032213956 -0.03704605 0.043488838 -0.012885582 0.004832093 0.033824652 0.08536698 0.04187814 0.02093907 -0.13368791 -0.045099534 -0.04026744 -0.025771163 -0.009664186 0.024160465 -0.051542327
000070 00 09 0b 09 27 10 f9 1c 08 f4 23 0f f3 fa cb f2
       0.0 0.01449628 0.017717674 0.01449628 0.06281721 0.025771163 -0.0112748835 0.045099534 0.012885582 -0.019328373 0.05637442 0.024160465 -0.02093907 -0.009664186 -0.08536698 -0.022549767
000080 19 d4 1a 05 fd e2 05 11 2e 12 19 ee 03 1b 16 41
       0.04026744 -0.0708707 0.04187814 0.008053489 -0.004832093 -0.04832093 0.008053489 0.027381862 0.0740921 0.02899256 0.04026744 -0.02899256 0.004832093 0.043488838 0.03543535 0.10469535
000090 25 06 f7 e2 ef 1f ff 0b 05 ea fb d5 ff f6 fe 05
       0.059595816 0.009664186 -0.01449628 -0.04832093 -0.027381862 0.04993163 -0.0016106977 0.017717674 0.008053489 -0.03543535 -0.008053489 -0.06926 -0.0016106977 -0.016106978 -0.0032213954 0.008053489
0000a0 fa f6 f8 e8 01 c4 0e 18 12 07 f6 12 e3 1f 31 f8
       -0.009664186 -0.016106978 -0.012885582 -0.038656745 0.0016106977 -0.09664186 0.022549767 0.038656745 0.02899256 0.0112748835 -0.016106978 0.02899256 -0.046710234 0.04993163 0.07892419 -0.012885582
0000b0 39 21 f2 24 35 f8 e1 2a dc 03 fc 0d f6 f9 ca 0d
       0.09180977 0.053153023 -0.022549767 0.05798512 0.08536698 -0.012885582 -0.04993163 0.067649305 -0.05798512 0.004832093 -0.006442791 0.02093907 -0.016106978 -0.0112748835 -0.086977676 0.02093907
0000c0 e2 0d 0b c0 fd f5 f0 09 cc ec 13 0a 11 13 02 f8
       -0.04832093 0.02093907 0.017717674 -0.10308465 -0.004832093 -0.017717674 -0.025771163 0.01449628 -0.08375628 -0.032213956 0.030603256 0.016106978 0.027381862 0.030603256 0.0032213954 -0.012885582
0000d0 fd 08 0f fa 0c e4 21 0c ff 2e d5 0c 0b 12 ea f3
       -0.004832093 0.012885582 0.024160465 -0.009664186 0.019328373 -0.045099534 0.053153023 0.019328373 -0.0016106977 0.0740921 -0.06926 0.019328373 0.017717674 0.02899256 -0.03543535 -0.02093907
0000e0 1b ee d0 cf c9 e1 f7 e6 01 f3 47 0c 09 e0 fe 0b
       0.043488838 -0.02899256 -0.07731349 -0.07892419 -0.08858837 -0.04993163 -0.01449628 -0.04187814 0.0016106977 -0.02093907 0.114359535 0.019328373 0.01449628 -0.051542327 -0.0032213954 0.017717674
0000f0 f9 03 00 07 15 24 f4 d7 db 08 07 f1 f2 22 fa 0b
       -0.0112748835 0.004832093 0.0 0.0112748835 0.033824652 0.05798512 -0.019328373 -0.06603861 -0.059595816 0.012885582 0.0112748835 -0.024160465 -0.022549767 0.054763723 -0.009664186 0.017717674

MynaNet_DSCNN_SE_Res_Att_Wide/enhanced_mhsa/query/add/ReadVariableOp i1 [4, 48] scale=0.00067971915 zero_point=3
000000 b0 46 f9 f9 d7 1f 33 fc 93 24 dc 48 2a d7 ec de
       -0.05641669 0.045541182 -0.0067971917 -0.0067971917 -0.029907642 0.019032136 0.032626517 -0.004758034 -0.07612854 0.022430731 -0.026509047 0.046900623 0.026509047 -0.029907642 -0.01563354 -0.025149608
000010 58 ea ea bf ce fc 2a 1c 2f 47 dd 0b fe 3a ee fd
       0.057776127 -0.016992979 -0.016992979 -0.046220902 -0.036025114 -0.004758034 0.026509047 0.016992979 0.029907642 0.046220902 -0.025829328 0.005437753 -0.0033985958 0.037384555 -0.014274102 -0.0040783146
000020 e8 d6 96 dd 0a 2e e6 2b e7 e1 d5 f0 03 39 1a 36
       -0.018352417 -0.030587362 -0.074089386 -0.025829328 0.004758034 0.029227924 -0.019711856 0.027188767 -0.019032136 -0.023110451 -0.03126708 -0.012914664 0.0 0.036704835 0.01563354 0.034665678
000030 1d f0 e5 23 f7 f1 3c fd fe 1a e5 ef 15 fa fd 19
       0.017672697 -0.012914664 -0.020391574 0.021751013 -0.008156629 -0.012234945 0.03874399 -0.0040783146 -0.0033985958 0.01563354 -0.020391574 -0.013594383 0.012234945 -0.0061174724 -0.0040783146 0.014953821
000040 0b 1c ef 06 f4 f9 19 11 f1 f0 05 1f eb e9 fe fb
       0.005437753 0.016992979 -0.013594383 0.0020391573 -0.010195787 -0.0067971917 0.014953821 0.009516068 -0.012234945 -0.012914664 0.0013594383 0.019032136 -0.016313259 -0.017672697 -0.0033985958 -0.005437753
000050 0c e6 e2 12 ec 07 00 01 11 21 0d 2c 0c fd 09 1c
       0.0061174724 -0.019711856 -0.022430731 0.010195787 -0.01563354 0.0027188766 -0.0020391573 -0.0013594383 0.009516068 0.020391574 0.0067971917 0.027868485 0.0061174724 -0.0040783146 0.0040783146 0.016992979
000060 12 2c ba f1 26 52 d0 31 f9 c7 f7 ff 06 1a 05 ab
       0.010195787 0.027868485 -0.049619496 -0.012234945 0.02379017 0.053697813 -0.034665678 0.03126708 -0.0067971917 -0.04078315 -0.008156629 -0.0027188766 0.0020391573 0.01563354 0.0013594383 -0.059815284
000070 47 63 0e 09 20 e4 51 e7 62 92 bc 80 21 f2 7f 5a
       0.046220902 0.065253034 0.0074769105 0.0040783146 0.019711856 -0.021071294 0.053018093 -0.019032136 0.06457332 -0.07680827 -0.04826006 -0.08904321 0.020391574 -0.011555226 0.08428518 0.059135567
000080 0c d4 1d 7a ce 39 a4 28 e2 39 f8 0c 76 e1 c3 1b
       0.0061174724 -0.0319468 0.017672697 0.08088658 -0.036025114 0.036704835 -0.06457332 0.025149608 -0.022430731 0.036704835 -0.0074769105 0.0061174724 0.0781677 -0.023110451 -0.043502025 0.016313259
000090 0f ca 90 5a 5c 22 db 20 0f 1a 89 d7 fd f9 ad ea
       0.008156629 -0.03874399 -0.0781677 0.059135567 0.060495004 0.021071294 -0.027188767 0.019711856 0.008156629 0.01563354 -0.08292574 -0.029907642 -0.0040783146 -0.0067971917 -0.058455847 -0.016992979
0000a0 46 02 b5 f3 d0 4b f3 c5 d4 10 09 ce 07 1b e2 2e
       0.045541182 -0.00067971915 -0.053018093 -0.010875506 -0.034665678 0.04893978 -0.010875506 -0.04214259 -0.0319468 0.008836349 0.0040783146 -0.036025114 0.0027188766 0.016313259 -0.022430731 0.029227924
0000b0 f1 51 be 05 41 0f 10 16 1d f2 cc 18 fa ec ef f1
       -0.012234945 0.053018093 -0.046900623 0.0013594383 0.04214259 0.008156629 0.008836349 0.012914664 0.017672697 -0.011555226 -0.037384555 0.014274102 -0.0061174724 -0.01563354 -0.013594383 -0.012234945

MynaNet_DSCNN_SE_Res_Att_Wide/enhanced_mhsa/query/einsum/Einsum i1 [192, 96] scale=0.0018690602 zero_point=0
000000 e1 e1 f7 f7 eb 1c f4 e6 04 ee 11 ea f1 10 fa f4
       -0.057940867 -0.057940867 -0.016821543 -0.016821543 -0.039250266 0.052333687 -0.022428723 -0.048595566 0.007476241 -0.033643086 0.031774025 -0.041119326 -0.028035903 0.029904963 -0.0112143615 -0.022428723
000010 d6 0a ff fc eb ee 05 08 09 fb 01 05 f6 fd ea 01
       -0.07850053 0.018690603 -0.0018690602 -0.007476241 -0.039250266 -0.033643086 0.009345301 0.014952482 0.016821543 -0.009345301 0.0018690602 0.009345301 -0.018690603 -0.0056071808 -0.041119326 0.0018690602
000020 fb 0e f6 e9 ea f3 fe eb 3a f0 e3 0a 0a df e0 10
       -0.009345301 0.026166843 -0.018690603 -0.042988386 -0.041119326 -0.024297783 -0.0037381204 -0.039250266 0.10840549 -0.029904963 -0.054202747 0.018690603 0.018690603 -0.061678987 -0.059809927 0.029904963
000030 ee d8 20 04 ef e9 13 fe 00 fb fc 18 1a eb 00 0e
       -0.033643086 -0.07476241 0.059809927 0.007476241 -0.031774025 -0.042988386 0.035512146 -0.0037381204 0.0 -0.009345301 -0.007476241 0.044857446 0.048595566 -0.039250266 0.0 0.026166843
000040 df 01 e3 e5 0a 0c fe f1 fe e8 ef f4 fa ee 01 1a
       -0.061678987 0.0018690602 -0.054202747 -0.050464626 0.018690603 0.022428723 -0.0037381204 -0.028035903 -0.0037381204 -0.044857446 -0.031774025 -0.022428723 -0.0112143615 -0.033643086 0.0018690602 0.048595566
000050 f1 fa fc f0 f6 ed e2 eb ec f8 df ef e2 f7 ef e1
       -0.028035903 -0.0112143615 -0.007476241 -0.029904963 -0.018690603 -0.035512146 -0.056071807 -0.039250266 -0.037381206 -0.014952482 -0.061678987 -0.031774025 -0.056071807 -0.016821543 -0.031774025 -0.057940867
000060 24 0a ff f6 11 14 08 04 0e fd fb f9 16 fd 10 08
       0.06728617 0.018690603 -0.0018690602 -0.018690603 0.031774025 0.037381206 0.014952482 0.007476241 0.026166843 -0.0056071808 -0.009345301 -0.013083422 0.041119326 -0.0056071808 0.029904963 0.014952482
000070 13 0f 08 f9 12 20 03 03 ff 10 01 0c 07 0f 1a 0a
       0.035512146 0.028035903 0.014952482 -0.013083422 0.033643086 0.059809927 0.0056071808 0.0056071808 -0.0018690602 0.029904963 0.0018690602 0.022428723 0.013083422 0.028035903 0.048595566 0.018690603
000080 1f fb fa fb 0b f6 0a f8 0b f6 ec 11 fc 1b 0d 0f
       0.057940867 -0.009345301 -0.0112143615 -0.009345301 0.020559663 -0.018690603 0.018690603 -0.014952482 0.020559663 -0.018690603 -0.037381206 0.031774025 -0.007476241 0.050464626 0.024297783 0.028035903
000090 02 f0 f3 f6 0c 06 0f 19 1b 1b 01 f6 f6 0f f5 f6
       0.0037381204 -0.029904963 -0.024297783 -0.018690603 0.022428723 0.0112143615 0.028035903 0.046726506 0.050464626 0.050464626 0.0018690602 -0.018690603 -0.018690603 0.028035903 -0.020559663 -0.018690603
0000a0 01 f9 2a 0b 0f fd fd f9 fb 20 02 15 0b f8 fd ef
       0.0018690602 -0.013083422 0.07850053 0.020559663 0.028035903 -0.0056071808 -0.0056071808 -0.013083422 -0.009345301 0.059809927 0.0037381204 0.039250266 0.020559663 -0.014952482 -0.0056071808 -0.031774025
0000b0 17 1f 03 21 e7 f4 fd f6 fc 03 27 05 0a ff 05 01
       0.042988386 0.057940867 0.0056071808 0.061678987 -0.046726506 -0.022428723 -0.0056071808 -0.018690603 -0.007476241 0.0056071808 0.07289335 0.009345301 0.018690603 -0.0018690602 0.009345301 0.0018690602
0000c0 f5 02 fc ff 05 17 00 fb f5 09 f3 f9 f5 fb ea dd
       -0.020559663 0.0037381204 -0.007476241 -0.0018690602 0.009345301 0.042988386 0.0 -0.009345301 -0.020559663 0.016821543 -0.024297783 -0.013083422 -0.020559663 -0.009345301 -0.041119326 -0.06541711
0000d0 c7 0a 12 e5 00 fe 04 19 11 0c fc f1 e3 01 e0 f1
       -0.10653643 0.018690603 0.033643086 -0.050464626 0.0 -0.0037381204 0.007476241 0.046726506 0.031774025 0.022428723 -0.007476241 -0.028035903 -0.054202747 0.0018690602 -0.059809927 -0.028035903
0000e0 06 f9 08 10 03 17 12 0e 2f 0c fa ff 09 f5 e4 25
       0.0112143615 -0.013083422 0.014952482 0.029904963 0.0056071808 0.042988386 0.033643086 0.026166843 0.08784583 0.022428723 -0.0112143615 -0.0018690602 0.016821543 -0.020559663 -0.052333687 0.06915523
0000f0 e7 2e fa 01 e3 0d 13 ec f8 22 0b 23 38 15 03 0c
       -0.046726506 0.08597677 -0.0112143615 0.0018690602 -0.054202747 0.024297783 0.035512146 -0.037381206 -0.014952482 0.06354805 0.020559663 0.06541711 0.10466737 0.039250266 0.0056071808 0.022428723

MynaNet_DSCNN_SE_Res_Att_Wide/enhanced_mhsa/key/add/ReadVariableOp i1 [4, 48] scale=2.9412527e-06 zero_point=-10
000000 9b 25 ef ed e2 e0 3a ec 80 f9 f0 2c ff d9 df f3
       -0.000267654 0.00013823887 -2.0588768e-05 -2.6471274e-05 -5.8825055e-05 -6.470756e-05 0.00020000518 -2.9412528e-05 -0.0003470678 8.8237575e-06 -1.7647515e-05 0.00015882765 2.6471274e-05 -8.529633e-05 -6.764881e-05 -8.8237575e-06
000010 eb da e9 cd c8 f8 13 f7 08 2e 0c f9 fd f1 f0 f2
       -3.235378e-05 -8.235507e-05 -3.8236285e-05 -0.00012059136 -0.00013529763 5.8825053e-06 8.529633e-05 2.9412527e-06 5.294255e-05 0.00016471015 6.470756e-05 8.8237575e-06 2.0588768e-05 -1.4706264e-05 -1.7647515e-05 -1.1765011e-05
000020 e9 fa c9 fc f2 fb 0c f4 e9 f4 ee 01 fa fc 0a da
       -3.8236285e-05 1.1765011e-05 -0.00013235636 1.7647515e-05 -1.1765011e-05 1.4706264e-05 6.470756e-05 -5.8825053e-06 -3.8236285e-05 -5.8825053e-06 -2.3530021e-05 3.235378e-05 1.1765011e-05 1.7647515e-05 5.8825055e-05 -8.235507e-05
000030 0e f9 fa f3 f4 f6 f9 f7 05 f3 eb fb 19 1f f2 fb
       7.059006e-05 8.8237575e-06 1.1765011e-05 -8.8237575e-06 -5.8825053e-06 0.0 8.8237575e-06 2.9412527e-06 4.411879e-05 -8.8237575e-06 -3.235378e-05 1.4706264e-05 0.00010294384 0.00012059136 -1.1765011e-05 1.4706264e-05
000040 f8 f5 f9 fa f0 ef ec ea fa ef e3 ff e8 f1 f2 fd
       5.8825053e-06 -2.9412527e-06 8.8237575e-06 1.1765011e-05 -1.7647515e-05 -2.0588768e-05 -2.9412528e-05 -3.529503e-05 1.1765011e-05 -2.0588768e-05 -5.58838e-05 2.6471274e-05 -4.1177536e-05 -1.4706264e-05 -1.1765011e-05 2.0588768e-05
000050 de dd e0 fa f6 fb d9 ea 00 f3 05 d9 0c 03 ef 00
       -7.059006e-05 -7.3531315e-05 -6.470756e-05 1.1765011e-05 0.0 1.4706264e-05 -8.529633e-05 -3.529503e-05 2.9412528e-05 -8.8237575e-06 4.411879e-05 -8.529633e-05 6.470756e-05 3.8236285e-05 -2.0588768e-05 2.9412528e-05
000060 ed fe ee f4 fb d5 ea 1a 07 e4 ea ee f0 e5 fa e2
       -2.6471274e-05 2.3530021e-05 -2.3530021e-05 -5.8825053e-06 1.4706264e-05 -9.706134e-05 -3.529503e-05 0.0001058851 5.0001294e-05 -5.294255e-05 -3.529503e-05 -2.3530021e-05 -1.7647515e-05 -5.0001294e-05 1.1765011e-05 -5.8825055e-05
000070 ee ce eb 00 eb fa fc 09 f9 da fc e1 e6 fe 7f d8
       -2.3530021e-05 -0.00011765011 -3.235378e-05 2.9412528e-05 -3.235378e-05 1.1765011e-05 1.7647515e-05 5.58838e-05 8.8237575e-06 -8.235507e-05 1.7647515e-05 -6.17663e-05 -4.7060043e-05 2.3530021e-05 0.0004029516 -8.823758e-05
000080 fd f0 e7 d9 fd fc c7 e9 ed e7 f3 ec 20 fa 02 f4
       2.0588768e-05 -1.7647515e-05 -4.411879e-05 -8.529633e-05 2.0588768e-05 1.7647515e-05 -0.00013823887 -3.8236285e-05 -2.6471274e-05 -4.411879e-05 -8.8237575e-06 -2.9412528e-05 0.0001235326 1.1765011e-05 3.529503e-05 -5.8825053e-06
000090 f3 db 0d e2 f2 00 f3 fe ec 11 eb ef e6 fa 62 f0
       -8.8237575e-06 -7.9413825e-05 6.764881e-05 -5.8825055e-05 -1.1765011e-05 2.9412528e-05 -8.8237575e-06 2.3530021e-05 -2.9412528e-05 7.9413825e-05 -3.235378e-05 -2.0588768e-05 -4.7060043e-05 1.1765011e-05 0.0003176553 -1.7647515e-05
0000a0 c0 e7 d2 02 12 e4 02 04 f4 f9 ff fa 02 08 f5 d9
       -0.00015882765 -4.411879e-05 -0.0001058851 3.529503e-05 8.235507e-05 -5.294255e-05 3.529503e-05 4.1177536e-05 -5.8825053e-06 8.8237575e-06 2.6471274e-05 1.1765011e-05 3.529503e-05 5.294255e-05 -2.9412527e-06 -8.529633e-05
0000b0 ec ad 11 fb 09 11 e5 04 e4 0e aa fb f9 00 f3 eb
       -2.9412528e-05 -0.00021471144 7.9413825e-05 1.4706264e-05 5.58838e-05 7.9413825e-05 -5.0001294e-05 4.1177536e-05 -5.294255e-05 7.059006e-05 -0.0002235352 1.4706264e-05 8.8237575e-06 2.9412528e-05 -8.8237575e-06 -3.235378e-05

MynaNet_DSCNN_SE_Res_Att_Wide/enhanced_mhsa/key/einsum/Einsum i1 [192, 96] scale=0.0022079607 zero_point=0
000000 1e e0 12 0a 14 02 17 53 0d 10 3d 31 fb 0d 7b 03
       0.06623882 -0.07065474 0.039743293 0.022079607 0.044159215 0.0044159214 0.050783098 0.18326074 0.028703488 0.03532737 0.1346856 0.108190075 -0.011039804 0.028703488 0.27157918 0.006623882
000010 1a f4 fe 10 1b 1f f7 06 e2 e5 18 0a ed 0d 08 fa
       0.057406977 -0.026495527 -0.0044159214 0.03532737 0.059614938 0.068446785 -0.019871647 0.013247764 -0.06623882 -0.059614938 0.052991055 0.022079607 -0.041951254 0.028703488 0.017663686 -0.013247764
000020 06 f1 02 24 fd f7 05 d3 0f 02 25 05 0c f9 44 d2
       0.013247764 -0.03311941 0.0044159214 0.079486586 -0.006623882 -0.019871647 0.011039804 -0.09935823 0.03311941 0.0044159214 0.08169454 0.011039804 0.026495527 -0.015455725 0.15014133 -0.101566195
000030 fe ea 29 1c 0d df f3 0c 29 02 05 fd 09 de 06 fc
       -0.0044159214 -0.048575137 0.09052639 0.0618229 0.028703488 -0.0728627 -0.028703488 0.026495527 0.09052639 0.0044159214 0.011039804 -0.006623882 0.019871647 -0.075070664 0.013247764 -0.008831843
000040 15 0b 06 f0 1f 0a 01 02 0c 14 f4 03 44 5a e3 34
       0.046367176 0.024287568 0.013247764 -0.03532737 0.068446785 0.022079607 0.0022079607 0.0044159214 0.026495527 0.044159215 -0.026495527 0.006623882 0.15014133 0.19871646 -0.06403086 0.11481395
000050 00 13 17 e2 46 ee ef f6 ed 01 0a 09 07 fe ea 1b
       0.0 0.041951254 0.050783098 -0.06623882 0.15455724 -0.039743293 -0.037535332 -0.022079607 -0.041951254 0.0022079607 0.022079607 0.019871647 0.015455725 -0.0044159214 -0.048575137 0.059614938
000060 e3 1c f5 fa f2 14 fd b0 de fb db d8 07 f7 ad f8
       -0.06403086 0.0618229 -0.024287568 -0.013247764 -0.03091145 0.044159215 -0.006623882 -0.17663686 -0.075070664 -0.011039804 -0.08169454 -0.08831843 0.015455725 -0.019871647 -0.18326074 -0.017663686
000070 f1 0c 04 07 f0 ef 00 07 14 03 f4 02 2c f7 ed 0d
       -0.03311941 0.026495527 0.008831843 0.015455725 -0.03532737 -0.037535332 0.0 0.015455725 0.044159215 0.006623882 -0.026495527 0.0044159214 0.09715027 -0.019871647 -0.041951254 0.028703488
000080 04 20 0e e9 09 05 fa 2c 0a f2 de 10 ff fb c8 19
       0.008831843 0.07065474 0.03091145 -0.050783098 0.019871647 0.011039804 -0.013247764 0.09715027 0.022079607 -0.03091145 -0.075070664 0.03532737 -0.0022079607 -0.011039804 -0.1236458 0.055199016
000090 f0 25 d1 ec e2 24 0e fb dc 06 00 0c ec 0d 0b 04
       -0.03532737 0.08169454 -0.10377415 -0.044159215 -0.06623882 0.079486586 0.03091145 -0.011039804 -0.079486586 0.013247764 0.0 0.026495527 -0.044159215 0.028703488 0.024287568 0.008831843
0000a0 e9 07 fd 11 e1 f5 02 0e f3 f8 f3 08 db b6 00 e8
       -0.050783098 0.015455725 -0.006623882 0.037535332 -0.068446785 -0.024287568 0.0044159214 0.03091145 -0.028703488 -0.017663686 -0.028703488 0.017663686 -0.08169454 -0.16338909 0.0 -0.052991055
0000b0 0c f8 f8 11 b4 05 ea fd 27 09 00 06 fd 05 18 ef
       0.026495527 -0.017663686 -0.017663686 0.037535332 -0.16780502 0.011039804 -0.048575137 -0.006623882 0.086110465 0.019871647 0.0 0.013247764 -0.006623882 0.011039804 0.052991055 -0.037535332
0000c0 fa 10 f7 12 16 ff ff 0d 18 fb 0f f3 e5 07 fc 0a
       -0.013247764 0.03532737 -0.019871647 0.039743293 0.048575137 -0.0022079607 -0.0022079607 0.028703488 0.052991055 -0.011039804 0.03311941 -0.028703488 -0.059614938 0.015455725 -0.008831843 0.022079607
0000d0 ff fe f5 03 09 ff 07 e3 e5 09 ff 07 f9 11 0a fd
       -0.0022079607 -0.0044159214 -0.024287568 0.006623882 0.019871647 -0.0022079607 0.015455725 -0.06403086 -0.059614938 0.019871647 -0.0022079607 0.015455725 -0.015455725 0.037535332 0.022079607 -0.006623882
0000e0 f7 13 fa 15 16 28 01 fe 19 02 03 13 0b 03 08 f5
       -0.019871647 0.041951254 -0.013247764 0.046367176 0.048575137 0.08831843 0.0022079607 -0.0044159214 0.055199016 0.0044159214 0.006623882 0.041951254 0.024287568 0.006623882 0.017663686 -0.024287568
0000f0 fb e7 02 f8 1e ef 03 fd 00 0f 00 1a 14 07 ef f2
       -0.011039804 -0.055199016 0.0044159214 -0.017663686 0.06623882 -0.037535332 0.006623882 -0.006623882 0.0 0.03311941 0.0 0.057406977 0.044159215 0.015455725 -0.037535332 -0.03091145

MynaNet_DSCNN_SE_Res_Att_Wide/attention_proj/BiasAdd/ReadVariableOp i1 [96] scale=0.0005845544 zero_point=37
000000 04 03 ff 43 08 01 20 75 4a 80 26 2f 14 2b 4b 07
       -0.019290294 -0.019874848 -0.022213068 0.017536633 -0.016952077 -0.021043958 -0.002922772 0.04676435 0.021628512 -0.096451476 0.0005845544 0.005845544 -0.009937424 0.0035073264 0.022213068 -0.017536633
000010 3c 3b f9 1b 1c 11 f8 01 ff f7 1d 0b f8 e0 47 12
       0.0134447515 0.012860197 -0.025720393 -0.005845544 -0.0052609895 -0.011691088 -0.026304947 -0.021043958 -0.022213068 -0.026889503 -0.004676435 -0.015198414 -0.026304947 -0.040334255 0.019874848 -0.011106534
000020 12 27 03 58 e6 15 f5 37 2f 16 2c 18 16 21 40 74
       -0.011106534 0.0011691088 -0.019874848 0.029812275 -0.036826927 -0.00935287 -0.02805861 0.010521979 0.005845544 -0.008768316 0.0040918807 -0.007599207 -0.008768316 -0.0023382176 0.01578297 0.046179798
000030 ec 29 27 27 13 71 7f 55 f2 c2 00 27 0b 16 1c 12
       -0.0333196 0.0023382176 0.0011691088 0.0011691088 -0.010521979 0.044426136 0.052609894 0.02805861 -0.029812275 -0.057870883 -0.021628512 0.0011691088 -0.015198414 -0.008768316 -0.0052609895 -0.011106534
000040 3f c9 0f da 23 4d 12 30 fa 19 3b fd 3e 36 3c 10
       0.015198414 -0.053779006 -0.012860197 -0.043841578 -0.0011691088 0.023382176 -0.011106534 0.0064300983 -0.02513584 -0.0070146527 0.012860197 -0.023382176 0.014613859 0.009937424 0.0134447515 -0.012275642
000050 e4 2e 15 2a 5a 27 36 ee 19 13 51 0f ed 0b fd 4a
       -0.037996035 0.0052609895 -0.00935287 0.002922772 0.030981382 0.0011691088 0.009937424 -0.032150492 -0.0070146527 -0.010521979 0.025720393 -0.012860197 -0.032735046 -0.015198414 -0.023382176 0.021628512

MynaNet_DSCNN_SE_Res_Att_Wide/attention_proj/Tensordot/MatMul1 i1 [96, 384] scale=0.00209826 zero_point=0
000000 d5 d2 1b 39 11 c9 0f d8 05 c5 22 28 d1 d0 0e 0c
       -0.09022518 -0.09651996 0.05665302 0.11960082 0.03567042 -0.1154043 0.0314739 -0.0839304 0.0104913 -0.12379734 0.07134084 0.0839304 -0.09861822 -0.10071648 0.029375639 0.02517912
000010 1e 2a 06 24 0a f6 32 3b e8 f7 11 19 f6 d8 2d 1d
       0.0629478 0.08812692 0.01258956 0.07553736 0.0209826 -0.0209826 0.104913 0.12379734 -0.05035824 -0.01888434 0.03567042 0.0524565 -0.0209826 -0.0839304 0.0944217 0.06084954
000020 f9 fb 06 37 05 d4 05 16 e4 d9 0b 14 ed dd d9 e6
       -0.014687819 -0.0104913 0.01258956 0.1154043 0.0104913 -0.09232344 0.0104913 0.04616172 -0.058751278 -0.08183214 0.02308086 0.0419652 -0.03986694 -0.0734391 -0.08183214 -0.05455476
000030 ef 3e 0c e1 bc 24 d2 f8 26 12 3e fa da 1a fd 08
       -0.03567042 0.13009211 0.02517912 -0.06504606 -0.14268167 0.07553736 -0.09651996 -0.01678608 0.07973388 0.03776868 0.13009211 -0.01258956 -0.07973388 0.05455476 -0.00629478 0.01678608
000040 04 1b 33 e4 1d d2 d8 ec 21 cc d8 0d ff fd fd e0
       0.00839304 0.05665302 0.10701126 -0.058751278 0.06084954 -0.09651996 -0.0839304 -0.0419652 0.06924258 -0.10910952 -0.0839304 0.02727738 -0.00209826 -0.00629478 -0.00629478 -0.06714432
000050 06 0f f6 08 16 1b 13 c4 09 d7 0f be e2 ec 1d f0
       0.01258956 0.0314739 -0.0209826 0.01678608 0.04616172 0.05665302 0.03986694 -0.1258956 0.01888434 -0.08602866 0.0314739 -0.13848516 -0.0629478 -0.0419652 0.06084954 -0.03357216
000060 0f 28 39 c6 f8 e5 f6 c1 f3 eb 12 e5 04 eb 2b e3
       0.0314739 0.0839304 0.11960082 -0.12169908 -0.01678608 -0.05665302 -0.0209826 -0.13219038 -0.02727738 -0.04406346 0.03776868 -0.05665302 0.00839304 -0.04406346 0.09022518 -0.06084954
000070 1f da 30 d1 0f f5 2d e0 1c f6 cf 44 fc 0f 13 09
       0.06504606 -0.07973388 0.10071648 -0.09861822 0.0314739 -0.02308086 0.0944217 -0.06714432 0.058751278 -0.0209826 -0.10281474 0.14268167 -0.00839304 0.0314739 0.03986694 0.01888434
000080 bf c4 04 f0 0e bf 03 ff db 30 be f0 2e 02 1a e7
       -0.1363869 -0.1258956 0.00839304 -0.03357216 0.029375639 -0.1363869 0.00629478 -0.00209826 -0.077635616 0.10071648 -0.13848516 -0.03357216 0.09651996 0.00419652 0.05455476 -0.0524565
000090 f8 c7 fd 2b 2f 25 e2 00 24 17 0d f6 be d3 e3 d7
       -0.01678608 -0.11960082 -0.00629478 0.09022518 0.09861822 0.077635616 -0.0629478 0.0 0.07553736 0.04825998 0.02727738 -0.0209826 -0.13848516 -0.0944217 -0.06084954 -0.08602866
0000a0 2c 23 24 e5 35 2d bf f9 ca c1 bc 0f 00 d4 e8 20
       0.09232344 0.0734391 0.07553736 -0.05665302 0.111207776 0.0944217 -0.1363869 -0.014687819 -0.11330604 -0.13219038 -0.14268167 0.0314739 0.0 -0.09232344 -0.05035824 0.06714432
0000b0 cc 28 29 07 d6 fb ef 33 27 d8 3a 0e 02 fa 11 b7
       -0.10910952 0.0839304 0.08602866 0.014687819 -0.08812692 -0.0104913 -0.03567042 0.10701126 0.08183214 -0.0839304 0.12169908 0.029375639 0.00419652 -0.01258956 0.03567042 -0.15317298
0000c0 fb c8 d9 0f cb c8 e5 2d 01 f2 e5 b6 cd 06 f3 dc
       -0.0104913 -0.117502555 -0.08183214 0.0314739 -0.111207776 -0.117502555 -0.05665302 0.0944217 0.00209826 -0.029375639 -0.05665302 -0.15527123 -0.10701126 0.01258956 -0.02727738 -0.07553736
0000d0 c3 21 2d 0e 37 02 c5 ce e1 18 29 04 f5 2e d5 e9
       -0.12799385 0.06924258 0.0944217 0.029375639 0.1154043 0.00419652 -0.12379734 -0.104913 -0.06504606 0.05035824 0.08602866 0.00839304 -0.02308086 0.09651996 -0.09022518 -0.04825998
0000e0 12 ef 00 07 ea 4d bc da ac f2 31 ce 03 eb bb c9
       0.03776868 -0.03567042 0.0 0.014687819 -0.04616172 0.16156602 -0.14268167 -0.07973388 -0.17625384 -0.029375639 0.10281474 -0.104913 0.00629478 -0.04406346 -0.14477994 -0.1154043
0000f0 ed c2 2f d1 4c 05 0d c8 f9 28 11 23 e6 17 11 da
       -0.03986694 -0.13009211 0.09861822 -0.09861822 0.15946776 0.0104913 0.02727738 -0.117502555 -0.014687819 0.0839304 0.03567042 0.0734391 -0.05455476 0.04825998 0.03567042 -0.07973388

MynaNet_DSCNN_SE_Res_Att_Wide/block4_residual_proj/Conv2D i1 [384, 1, 1, 156]
000000 49 fd 0d 60 e8 fb 0e eb cb 2e 60 4a 7f e8 20 10
       73 -3 13 96 -24 -5 14 -21 -53 46 96 74 127 -24 32 16
000010 2a f9 f6 c9 0e f3 1f 4b 44 d6 a9 d1 d8 09 07 42
       42 -7 -10 -55 14 -13 31 75 68 -42 -87 -47 -40 9 7 66
000020 e5 f1 f1 15 6f 21 37 de 55 4b 19 e4 3e 0e ec d2
       -27 -15 -15 21 111 33 55 -34 85 75 25 -28 62 14 -20 -46
000030 14 1e 09 ce da 29 de e7 44 32 cd c6 ff a5 3b c3
       20 30 9 -50 -38 41 -34 -25 68 50 -51 -58 -1 -91 59 -61
000040 f0 05 25 02 ee 35 f9 0e e7 ff 9f d7 03 df b1 a6
       -16 5 37 2 -18 53 -7 14 -25 -1 -97 -41 3 -33 -79 -90
000050 ec 37 5b 23 12 04 b7 14 39 c2 e5 52 31 11 c3 c8
       -20 55 91 35 18 4 -73 20 57 -62 -27 82 49 17 -61 -56
000060 e3 24 4a 37 1f d4 bc 06 13 ea 3d 6e f1 19 40 cb
       -29 36 74 55 31 -44 -68 6 19 -22 61 110 -15 25 64 -53
000070 fa 30 39 28 1e 0e 1b ed 4a 56 24 2d 20 b3 58 d3
       -6 48 57 40 30 14 27 -19 74 86 36 45 32 -77 88 -45
000080 18 c3 f6 d9 cb 12 dc 1b 54 d8 da bc db 98 c5 b6
       24 -61 -10 -39 -53 18 -36 27 84 -40 -38 -68 -37 -104 -59 -74
000090 04 00 da 20 f2 e5 da 28 3c e2 db f1 49 cb e9 4a
       4 0 -38 32 -14 -27 -38 40 60 -30 -37 -15 73 -53 -23 74
0000a0 49 ec 81 c8 18 34 2b f6 eb 9f 07 fa cb 1d 42 4c
       73 -20 -127 -56 24 52 43 -10 -21 -97 7 -6 -53 29 66 76
0000b0 36 a6 be b7 2b d9 00 fa 1b 21 e5 06 ce 29 0f 4a
       54 -90 -66 -73 43 -39 0 -6 27 33 -27 6 -50 41 15 74
0000c0 4a 06 dd bd e7 ea cd 1e f5 cc c0 dc 3d b9 01 c5
       74 6 -35 -67 -25 -22 -51 30 -11 -52 -64 -36 61 -71 1 -59
0000d0 28 00 64 09 eb c8 d9 cc d4 40 1e 22 e7 0d a4 ec
       40 0 100 9 -21 -56 -39 -52 -44 64 30 34 -25 13 -92 -20
0000e0 20 48 c2 d7 d1 03 1e 30 18 f8 e6 1b 3c ec 05 4b
       32 72 -62 -41 -47 3 30 48 24 -8 -26 27 60 -20 5 75
0000f0 bc f6 d1 02 f3 53 df e2 25 13 d4 27 f9 e5 3c f2
       -68 -10 -47 2 -13 83 -33 -30 37 19 -44 39 -7 -27 60 -14

MynaNet_DSCNN_SE_Res_Att_Wide/block4_se_expand/Conv2D i1 [384, 1, 1, 16]
000000 41 ed eb 01 04 1a 29 4c 17 f8 81 d7 2e e4 1c f5
       65 -19 -21 1 4 26 41 76 23 -8 -127 -41 46 -28 28 -11
000010 40 16 ed 51 5f b7 42 ee 09 20 7f 41 6c 03 25 fe
       64 22 -19 81 95 -73 66 -18 9 32 127 65 108 3 37 -2
000020 2f 97 f3 1c 29 a2 ff 7f a9 24 d6 fc 22 43 b3 ed
       47 -105 -13 28 41 -94 -1 127 -87 36 -42 -4 34 67 -77 -19
000030 cc 1f f7 3e d9 2c 29 05 7f 32 c5 cc fe 54 0f 07
       -52 31 -9 62 -39 44 41 5 127 50 -59 -52 -2 84 15 7
000040 7f 4e d2 78 86 43 5a fa eb 20 fe 38 e1 ff c9 d3
       127 78 -46 120 -122 67 90 -6 -21 32 -2 56 -31 -1 -55 -45
000050 d1 36 1f 0a fc 12 7f 06 6d 41 1b 53 99 9f 70 ea
       -47 54 31 10 -4 18 127 6 109 65 27 83 -103 -97 112 -22
000060 34 5a 1f e8 81 48 65 cd 1b ee e7 08 b2 15 09 0c
       52 90 31 -24 -127 72 101 -51 27 -18 -25 8 -78 21 9 12
000070 03 6e 2d fb 0b ee 43 d6 65 ea e4 7f 6f 2d 6d 1c
       3 110 45 -5 11 -18 67 -42 101 -22 -28 127 111 45 109 28
000080 db de ec 0d 5a cb 24 7f ff 04 d7 a7 18 2d dc e9
       -37 -34 -20 13 90 -53 36 127 -1 4 -41 -89 24 45 -36 -23
000090 ef c8 51 0c 7f ed 68 66 f1 54 bf 64 1f 2a 0f fa
       -17 -56 81 12 127 -19 104 102 -15 84 -65 100 31 42 15 -6
0000a0 30 de de 63 df 0a 81 c8 53 e3 5f fc e5 0a d9 b0
       48 -34 -34 99 -33 10 -127 -56 83 -29 95 -4 -27 10 -39 -80
0000b0 11 81 4c ae 14 15 fd dc de 45 c8 de 2a 41 15 46
       17 -127 76 -82 20 21 -3 -36 -34 69 -56 -34 42 65 21 70
0000c0 1d 1b e2 eb 7f ff e1 e7 dd ff f8 1b 77 05 04 2b
       29 27 -30 -21 127 -1 -31 -25 -35 -1 -8 27 119 5 4 43
0000d0 40 7f 88 b2 09 18 3d ff c8 7c be 3f 3d 93 ed d9
       64 127 -120 -78 9 24 61 -1 -56 124 -66 63 61 -109 -19 -39
0000e0 3e 7f 4a 21 26 de 29 51 2f 06 3d 98 25 dc f3 d4
       62 127 74 33 38 -34 41 81 47 6 61 -104 37 -36 -13 -44
0000f0 ff 2b 41 e6 7f 0e e0 d8 1b f8 ff 1b 30 4c d1 55
       -1 43 65 -26 127 14 -32 -40 27 -8 -1 27 48 76 -47 85

MynaNet_DSCNN_SE_Res_Att_Wide/block4_se_reduce/Conv2D i1 [16, 1, 1, 384]
000000 f2 c5 eb dd e6 ae db ef d8 28 48 f5 e8 2b d2 c9
       -14 -59 -21 -35 -26 -82 -37 -17 -40 40 72 -11 -24 43 -46 -55
000010 cf 38 28 17 b3 26 ca b9 0a bf e7 c8 06 c1 06 13
       -49 56 40 23 -77 38 -54 -71 10 -65 -25 -56 6 -63 6 19
000020 2a 2d e5 af a2 09 18 15 e8 2b 18 b1 c8 eb 25 ab
       42 45 -27 -81 -94 9 24 21 -24 43 24 -79 -56 -21 37 -85
000030 01 f2 1b df 16 0a f3 11 c6 3f bc a5 08 3f 16 05
       1 -14 27 -33 22 10 -13 17 -58 63 -68 -91 8 63 22 5
000040 11 11 cb 36 ef d7 30 26 f7 ca 14 0b 04 0e d0 b1
       17 17 -53 54 -17 -41 48 38 -9 -54 20 11 4 14 -48 -79
000050 cc ce f8 12 b4 e1 b3 c6 12 f0 25 4e 24 60 23 e1
       -52 -50 -8 18 -76 -31 -77 -58 18 -16 37 78 36 96 35 -31
000060 e0 3b 37 ce 08 df 41 08 19 31 09 c7 ef d7 ea ed
       -32 59 55 -50 8 -33 65 8 25 49 9 -57 -17 -41 -22 -19
000070 54 bf 12 04 f0 10 b7 fd 3a e6 23 0c d4 1e 56 20
       84 -65 18 4 -16 16 -73 -3 58 -26 35 12 -44 30 86 32
000080 06 23 b6 bc 12 22 e5 f4 20 04 bb 60 04 fe 29 a5
       6 35 -74 -68 18 34 -27 -12 32 4 -69 96 4 -2 41 -91
000090 05 fb f0 0a 05 1f e1 42 c7 de 28 cf 12 4a 2d bd
       5 -5 -16 10 5 31 -31 66 -57 -34 40 -49 18 74 45 -67
0000a0 f2 0f c8 ef fe 10 25 cd 21 4e 21 2d f3 2d e4 fc
       -14 15 -56 -17 -2 16 37 -51 33 78 33 45 -13 45 -28 -4
0000b0 2a fc bd 49 f3 de 03 4d 3d 00 ef 31 a6 0e 0c 09
       42 -4 -67 73 -13 -34 3 77 61 0 -17 49 -90 14 12 9
0000c0 d0 e3 41 0d ee fa 33 fb c7 e3 41 1b 07 de e3 18
       -48 -29 65 13 -18 -6 51 -5 -57 -29 65 27 7 -34 -29 24
0000d0 f0 e9 0b 23 22 bf 22 d0 c7 cb 36 11 dc ea f1 01
       -16 -23 11 35 34 -65 34 -48 -57 -53 54 17 -36 -22 -15 1
0000e0 24 3e e3 04 02 ab 21 f6 f4 13 ef b4 0c 09 ea f6
       36 62 -29 4 2 -85 33 -10 -12 19 -17 -76 12 9 -22 -10
0000f0 26 09 02 00 0e 2c d6 07 1d c0 f4 26 4c 81 30 ab
       38 9 2 0 14 44 -42 7 29 -64 -12 38 76 -127 48 -85
